Long-To-Short/weights/dqn_curriculum_long_to_short.pth (torch, 72977 bytes, 6 tensors)

fc1.weight f4 [128, 4]
-0.37842906 0.22722454 0.89918536 0.32708612 0.1711151 -0.46120292 1.6613449 -0.09892281
-0.1226876 0.07775616 0.34384632 0.08703325 -0.012846965 0.011791205 3.6407416 0.27557588
-0.06398711 -0.028630728 1.3426328 1.4980518 0.024723 -0.024289286 -1.8791397 0.40335312
0.49578243 0.07259234 0.046016872 -0.01754221 -0.6587872 -0.47957867 -1.4366331 -0.43157429
-0.03146891 0.1556477 1.4541466 0.19314146 0.24870977 0.14686267 1.8228396 0.27163577
0.059541218 0.1311105 0.91342556 0.23461735 0.63220173 0.42482355 1.1902299 0.2724127
0.149988 -0.32259196 0.0817593 -0.47899458 -0.15776427 0.21042703 0.6140239 0.31852
0.010760801 -0.012639533 0.07974052 -0.009982785 -0.32772216 0.68400353 0.2660064 0.7145948
-0.11198386 0.15541518 -1.1827774 0.5679859 -0.075722255 0.07647215 3.3380444 0.74169445
0.0062948163 0.03073863 3.7041934 0.3367284 0.17974934 0.5165643 -1.0837942 0.14775151
-0.40863964 0.569178 0.6501793 0.31444082 -0.011621444 -0.0052299644 -3.445389 -0.107652985
0.0403463 -0.08256196 -1.7305374 -0.17309044 0.3904723 0.54730576 1.2793941 0.50574505
-0.08374159 -0.8961387 -0.7200954 -0.452628 -0.4638695 -0.45024002 0.36803713 -0.1366007
0.61856383 0.49412382 1.5514094 0.35780662 -0.008710849 -0.407215 -1.3062029 -0.35041946
-0.086263716 0.15481026 0.43773478 0.46935543 -0.1669463 -0.36891305 -0.5317889 -0.2341663
-0.08569947 -0.046624746 -0.61287403 -0.16105601 0.5744193 0.24433362 0.9062037 0.1602404
0.04749248 0.16622189 1.0260105 0.32697755 -0.77241176 -0.27415964 -0.08088545 -0.17353725
-0.63717955 -0.3829637 -0.89466393 -0.23594101 0.011509249 0.08798477 -1.9809678 -0.6745363
-0.54354286 -0.44219923 -1.9536358 -0.50554675 0.4550691 0.23241405 0.8283906 0.1470324
-0.001915038 0.06778097 -4.282914 -0.4085961 0.1678931 -0.2463288 -1.3877841 -0.0039706314
-0.01222804 0.014945144 1.0393811 -0.011125634 0.113905124 0.29936844 -0.44299427 0.25229436
0.5673784 0.57354206 1.2323991 0.6323973 -0.039976712 0.046500284 -0.121764265 0.26554075
-0.117232256 -0.07681228 -2.248694 -0.13638744 -0.0025102834 0.026231537 2.826767 0.0852071
-0.06114097 -0.030732991 0.556393 -0.10820459 -0.012316003 0.031780187 4.3274775 0.50450414
-0.47034392 -0.43612695 -2.2627404 -0.5344009 -0.120258324 -0.07454835 -3.316134 -0.1225247
0.13707186 -0.06510309 -2.7444112 -0.6035148 0.31932336 0.26416042 1.0922499 0.13038674
-0.53516394 0.12123842 0.73852956 0.2666449 -0.028181238 0.02481698 0.7999279 0.26880744
0.045390632 -0.266677 1.7438658 -0.016570518 -0.0007910171 -0.021284504 3.1695411 0.13958372
0.18398741 0.14424285 1.9597181 0.026988931 0.3170595 0.20393103 2.848474 0.5877691
-0.45587304 0.043839876 -0.69300205 -0.0072655217 -0.022311071 -0.03364648 -0.50052553 0.10838854
-0.63972896 -0.36367193 -1.8080499 -0.35021853 -0.52799994 -0.17623822 -1.8130339 -0.23485886
0.019989878 0.38304132 -0.23887978 0.31660277 -0.21762833 -0.196441 -0.46879303 -0.3615032
00000000: 74c1 c1be 8dad 683e 0331 663f d577 a73e
00000010: cc38 2f3e ca22 ecbe f3a6 d43f 0b98 cabd
00000020: a343 fbbd 9f3e 9f3d a00c b03e 7d3e b23d
00000030: 147c 52bc e62f 413c e901 6940 4818 8d3e
00000040: ad0b 83bd fd8a eabc 64db ab3f 29c0 bf3f
00000050: e487 ca3c 53fa c6bc a687 f0bf 4d84 ce3e
00000060: 32d7 fd3e 4bab 943d 307c 3c3d aeb4 8fbc
00000070: 47a6 28bf 568b f5be 98e3 b7bf 4ef7 dcbe
00000080: 8be5 00bd 1c62 1f3e 7a21 ba3f e0c6 453e
00000090: c6ad 7e3e 2b63 163e cf52 e93f d813 8b3e
000000a0: 7ee1 733d d541 063e 42d6 693f 883f 703e
000000b0: f9d7 213f 7982 d93e 7459 983f ad79 8b3e
000000c0: 7496 193e c62a a5be 6b71 a73d c73e f5be
000000d0: f58c 21be 2f7a 573e ac30 1d3f 0e15 a33e
000000e0: 124e 303c 0b16 4fbc ff4e a33d d68e 23bc
000000f0: 33cb a7be db1a 2f3f fe31 883e afef 363f
00000100: cb57 e5bd 2825 1f3e 4065 97bf 8667 113f
00000110: 4514 9bbd 6e9d 9c3d 85a2 5540 b0df 3d3f
00000120: bf44 ce3b 94cf fb3c 8111 6d40 aa67 ac3e
00000130: 3610 383e 8f3d 043f c5b9 8abf 2c4c 173e
00000140: 3739 d1be a6b5 113f 2772 263f 63fe a03e
00000150: de67 3ebc 1f60 abbb 4181 5cc0 2b79 dcbd
00000160: 2942 253d 3f16 a9bd 4082 ddbf 9f3e 31be
00000170: fceb c73e 3b1c 0c3f 30c3 a33f 8278 013f
00000180: b680 abbd 5969 65bf 2c58 38bf dbbe e7be
00000190: 4e80 edbe dc85 e6be 5d6f bc3e 0ee1 0bbe
000001a0: 335a 1e3f ccfd fc3e 9594 c63f 6e32 b73e
000001b0: f3b7 0ebc 7c7e d0be a831 a7bf 2e6a b3be
000001c0: 08ab b0bd 9586 1e3e c61e e03e 5b4f f03e
000001d0: f9f3 2abe 2ce2 bcbe 5123 08bf 4ac9 6fbe
000001e0: 3483 afbd 97f9 3ebd 50e5 1cbf deeb 24be
000001f0: 250d 133f 9832 7a3e f7fc 673f 0f16 243e
00000200: 7a87 423d 1236 2a3e 5054 833f 9a69 a73e
00000210: c7bc 45bf a75e 8cbe 45a7 a5bd c0b3 31be
00000220: 331e 23bf d113 c4be b208 65bf 859a 71be
00000230: 4a91 3c3c 5c31 b43d 5a90 fdbf 69ae 2cbf
00000240: a025 0bbf f067 e2be bd10 fabf 836b 01bf
00000250: d1fe e83e f3fd 6d3e 6811 543f a98f 163e
00000260: 0302 fbba c0d0 8a3d a20d 89c0 8233 d1be
00000270: 2bec 2b3e 9e3d 7cbe e9a2 b1bf 121c 82bb
00000280: 1e58 48bc 7adc 743c 710a 853f 4b48 36bc
00000290: 1747 e93d d246 993e 25d0 e2be ba2c 813e
000002a0: b63f 113f a7d3 123f 41bf 9d3f cae4 213f
000002b0: 9fbe 23bd 1577 3e3d 8b5f f9bd f5f4 873e
000002c0: 7717 f0bd c24f 9dbd 9aea 0fc0 26a9 0bbe
000002d0: 9183 24bb 85e3 d63c c0e9 3440 0f81 ae3d
000002e0: f46e 7abd c1c3 fbbc c66f 0e3f 5e9a ddbd
000002f0: 10c9 49bc f12b 023d b27a 8a40 2f27 013f
00000300: ebd0 f0be 084c dfbe bdd0 10c0 7fce 08bf
00000310: ff49 f6bd ceac 98bd 8a3b 54c0 3bee fabd
00000320: 915c 0c3e c554 85bd 6fa4 2fc0 f27f 1abf
00000330: 5a7e a33e 0940 873e d8ce 8b3f 1a84 053e
00000340: 8100 09bf d94b f83d 4610 3d3f ae85 883e
00000350: 57dc e6bc fb4c cb3c 13c8 4c3f 21a1 893e
00000360: 87eb 393d e389 88be ff36 df3f e5be 87bc
00000370: 425c 4fba d75c aebc c3d9 4a40 09ef 0e3e
00000380: 3267 3c3e 66b4 133e 0bd8 fa3f e417 dd3c
00000390: 9f55 a23e 4cd3 503e 664d 3640 0978 163f
000003a0: 3168 e9be 7191 333d 9568 31bf 9d13 eebb
000003b0: b5c5 b6bc e4d0 09bd 7122 00bf d0fa dd3d
000003c0: 47c5 23bf 3533 babe 2e6e e7bf d84f b3be
000003d0: 012b 07bf cb77 34be 7f11 e8bf d77e 70be
000003e0: d0c1 a33c fe1d c43e e79c 74be c219 a23e
000003f0: f6d9 5ebe d427 49be a405 f0be f316 b9be

fc1.bias f4 [128]
-0.77531916 -0.62085855 0.14440201 -0.6708832 -0.3467702 -0.14880794 -1.124532 -1.1267354
0.65256256 -0.45872587 -0.59953636 -1.5125322 -1.195794 -0.8242847 -0.12757626 -0.63643336
0.18207239 -1.0736697 -0.6997697 -1.1654015 -0.5761155 -0.683092 0.8227233 -1.0839674
-0.7301653 -0.9312728 -1.4676825 -0.53943396 -0.9628563 -0.7729667 -0.55974954 -1.3562942
-0.5710884 -1.831644 -1.496391 -1.0547879 -1.3410869 -1.0837849 -1.0913533 0.46721157
-0.30162764 0.12425623 -1.4710026 -0.5840822 -0.8420076 -0.7294683 0.75660175 -0.8600412
-1.1535194 -0.7974822 -0.89039785 -1.1334177 -1.2169662 -0.56383646 -0.66228956 -0.68507236
-0.12527199 -0.9069596 -0.9838968 -0.13033845 -1.3944151 -1.1103443 -0.9720426 -0.06270333
-0.41944107 -0.84777176 -0.37155175 -1.2592113 -0.53176314 -1.4431998 -0.35978803 0.77293587
-0.76714796 -0.6725883 -1.1701487 -0.8219917 -0.89841485 -0.83674115 -1.2947235 -0.345772
-0.38287675 -0.5775433 -1.1291144 -0.6776184 0.5912979 -0.50685215 -1.4703788 -0.30442154
-0.44929484 0.021142777 -0.093711145 -0.38634786 -1.0033064 -0.88148236 -0.13710321 -0.657184
-0.9809407 -1.3641404 -0.9197559 0.4632975 -0.63656884 -0.7249873 -1.0595752 -0.1841932
-1.223056 -1.0883849 -0.18604423 -0.34408456 -0.7624862 -0.94956803 -0.8903533 -0.27043825
-0.62427056 -0.4843735 0.5516078 0.4861944 -0.82693976 -1.1927928 0.7312376 -0.90020907
-1.3724405 -0.834716 -0.9733948 -0.24514437 0.2058098 -0.58970606 -0.47605622 0.17131117
00000000: 517b 46bf 96f0 1ebf 1fde 133e 00bf 2bbf
00000010: dd8b b1be 1c61 18be aaf0 8fbf de38 90bf
00000020: 570e 273f 1ede eabe 377b 19bf a89a c1bf
00000030: c70f 99bf 5204 53bf 5aa3 02be 4ced 22bf
00000040: 2f71 3a3e 026e 89bf 1b24 33bf e02b 95bf
00000050: 4e7c 13bf 1edf 2ebf ff9d 523f 72bf 8abf
00000060: 1dec 3abf e567 6ebf 05dd bbbf 5818 0abf
00000070: c07d 76bf 25e1 45bf bf4b 0fbf 0c9b adbf
00000080: d932 12bf 5073 eabf be89 bfbf 4a03 87bf
00000090: bca8 abbf 77b9 8abf 77b1 8bbf 5b36 ef3e
000000a0: f06e 9abe 0d7a fe3d d049 bcbf 6986 15bf
000000b0: cf8d 57bf 6fbe 3abf a7b0 413f a92b 5cbf
000000c0: 86a6 93bf cb27 4cbf 1df1 63bf d513 91bf
000000d0: 8cc5 9bbf 9657 10bf cf8b 29bf e760 2fbf
000000e0: 4d47 00be 812e 68bf a9e0 7bbf 7177 05be
000000f0: 327c b2bf c31f 8ebf c9d7 78bf 9a6a 80bd
00000100: fbc0 d6be 9207 59bf 083c bebe d62d a1bf
00000110: a121 08bf c5ba b8bf 2336 b8be 20df 453f
00000120: cf63 44bf bf2e 2cbf 6fc7 95bf 0c6e 52bf
00000130: 84fe 65bf ab34 56bf 80b9 a5bf 0709 b1be
00000140: 6c08 c4be e1d9 13bf d286 90bf 6678 2dbf
00000150: 4d5f 173f 10c1 01bf 5f35 bcbf 24dd 9bbe
00000160: f909 e6be 9e33 ad3c a1eb bfbd 63cf c5be
00000170: 586c 80bf d4a8 61bf c964 0cbe 363d 28bf
00000180: ee1e 7bbf 279c aebf 1f75 6bbf 5435 ed3e
00000190: 2df6 22bf c598 39bf 29a0 87bf 249d 3cbe
000001a0: 198d 9cbf 3250 8bbf 6182 3ebe da2b b0be
000001b0: 4c32 43bf e416 73bf 32ee 63bf e276 8abe
000001c0: 32d0 1fbf ceff f7be 2b36 0d3f 79ee f83e
000001d0: 53b2 53bf 6fad 98bf 6332 3b3f 1a74 66bf
000001e0: 21ac afbf f3af 55bf 6730 79bf 2007 7bbe
000001f0: cebf 523e faf6 16bf a4bd f3be 326c 2f3e

fc2.weight f4 [128, 128]
-0.034946986 -0.031193975 -0.04389666 0.0031089708 -0.07702158 -0.026455672 0.03550094 0.01612989
-0.022460002 -0.0655716 -0.07551908 0.0076978654 -0.062507965 -0.037099194 0.036493436 -0.017331153
-0.06861908 0.04835067 -0.05328855 0.05947654 0.04765176 0.08403217 0.003307266 -0.038350534
-0.07917658 0.012093972 0.04198242 -0.113943 -0.044867683 -0.12593842 -0.028681455 0.032266986
-0.023135008 -0.054492135 -0.018706664 0.0076311524 -0.04544783 -0.032700785 0.015872553 -0.11066226
-0.064333424 -0.02237874 -0.009313196 -0.08839345 -0.011297263 -0.09988845 -0.12171681 0.0053016962
-0.019505985 -0.07752334 0.04133258 -0.036047492 -0.02939929 -0.08476305 -0.058154326 -0.020271309
-0.1171117 0.039167862 -0.03283565 -0.012097407 -0.1047818 -0.012705315 0.043047007 0.036834385
-0.085268594 0.0061475113 -0.1144448 0.074000485 -0.081614785 -0.08267001 -0.06065285 -0.07603792
-0.026042297 -0.01877021 -0.09957599 -0.029591523 0.07156197 0.005551286 0.005158566 0.028692367
-0.10672729 -0.041130733 0.058996476 0.04842677 0.012662611 -0.0798412 0.06403654 -0.08740069
0.025650406 -0.015173796 -0.036077254 0.042788975 0.036534943 0.0036320016 0.06910856 -0.023391059
0.03650196 0.043470867 0.06747802 0.013316397 -0.048408788 -0.034831565 0.048277605 0.0003272295
0.045806833 -0.050071593 -0.055010732 0.013441653 0.04456035 -0.050148036 -0.049370993 -0.060990334
0.044133753 0.014626408 -0.11018581 0.00075551134 0.064194955 -0.045724537 -0.045624908 -0.070743494
-0.07744038 0.033527635 0.061822265 -0.09135091 -0.04019902 0.04815755 -0.039137978 -0.047875866
0.3267646 -0.46021062 0.012528871 -0.8209283 0.11467318 0.2185123 -4.757412 -0.54466265
0.21062364 0.011497915 0.04485888 -5.0236945 -0.022455037 -0.27481318 -0.053524442 0.023315432
-0.05366894 -1.3804226 -1.6963394 -0.93503565 0.22237533 -2.426393 0.26337773 0.0795068
-0.92017674 -0.34361044 -1.333003 -0.43970475 -0.15642034 -0.03785563 -0.15689135 -2.624006
0.30676964 -1.2707573 -2.2164 0.2031513 -0.67418087 -4.156667 0.65401787 0.267275
0.18215416 0.09893018 -0.43793255 -0.3673572 -3.5971646 -6.7457533 0.15894948 -1.5656292
-1.3490406 -3.6171823 -2.1450179 -0.4718677 0.33192337 -0.47139436 -0.24439894 -2.0310712
-0.17304747 0.94377023 0.3410351 0.022135757 -1.2788371 -1.1577315 0.15364179 -0.13806698
-0.15977164 -1.5209901 0.07470531 -4.6740313 0.19911006 -9.211175 -0.08969546 0.18924108
-4.078044 0.40343848 -0.9374719 -0.27729318 -0.084757775 -0.22617568 -0.20837319 0.15075834
-0.30516362 0.18299983 0.006624739 -6.1004653 0.25834426 0.0030248794 -0.3708499 -0.17519708
-0.023589531 -0.14391682 0.006804182 -0.04377516 0.042410415 0.20173013 0.038644433 -2.3023257
-0.13916294 -3.857786 -0.48409006 -0.04863611 -4.662703 -2.7361724 -0.0990991 0.08410954
-1.1928381 -1.3620706 0.07019113 0.15690786 -6.7703953 -0.067817666 -0.45620972 -0.027242713
-0.43051028 -0.12605765 0.10430231 0.06244607 0.031625718 -3.224468 0.23569295 -6.9826593
-0.9744366 -4.031342 -1.0943903 0.02704546 -0.030355845 0.13695844 0.051413797 0.23249358
00000000: 9224 0fbd 828a ffbc fccc 33bd e0bf 4b3b
00000010: 7dbd 9dbd 91b9 d8bc 6f69 113d d522 843c
00000020: 0afe b7bc 674a 86bd bfa9 9abd 603e fc3b
00000030: 2d04 80bd 53f5 17bd 247a 153d 10fa 8dbc
00000040: 2988 8cbd 5a0b 463d 1845 5abd ac9d 733d
00000050: 7e2e 433d 0f19 ac3d b7be 583b 7315 1dbd
00000060: 5527 a2bd cc25 463c c2f5 2b3d f35a e9bd
00000070: 2dc7 37bd 00f6 00be 5ff5 eabc 632a 043d
00000080: a185 bdbc 2533 5fbd b83e 99bc bf0e fa3b
00000090: 8127 3abd 42f1 05bd 2807 823c e5a2 e2bd
000000a0: 3ec1 83bd 9f53 b7bc 6096 18bc a007 b5bd
000000b0: 2818 39bc 5192 ccbd aa46 f9bd dab9 ad3b
000000c0: 04cb 9fbc 8fc4 9ebd 5a4c 293d 89a6 13bd
000000d0: c8d6 f0bc 4098 adbd 3b33 6ebd 0410 a6bc
000000e0: 42d8 efbd 7b6e 203d ad7e 06bd 3434 46bc
000000f0: d797 d6bd f429 50bc 0f52 303d a7df 163d
00000100: 4da1 aebd 1071 c93b 0962 eabd 918d 973d
00000110: a725 a7bd e54e a9bd 1f6f 78bd c5b9 9bbd
00000120: a856 d5bc fcc3 99bc 7fee cbbd ec69 f2bc
00000130: 158f 923d 90e7 b53b 3009 a93b 410c eb3c
00000140: d693 dabd b378 28bd 4aa6 713d 265b 463d
00000150: d776 4f3c c883 a3bd 9725 833d 22ff b2bd
00000160: cd20 d23c 839b 78bc bec5 13bd 7e43 2f3d
00000170: aaa5 153d e006 6e3b ca88 8d3d 9b9e bfbc
00000180: 1483 153d 820e 323d eb31 8a3d 042d 5a3c
00000190: 4b48 46bd 8bab 0ebd bdbe 453d 0090 ab39
000001a0: f29f 3b3d df17 4dbd ef52 61bd 613a 5c3c
000001b0: ea84 363d 0768 4dbd 3d39 4abd 00d1 79bd
000001c0: 98c5 343d 9aa3 6f3c 19a9 e1bd 820d 463a
000001d0: a578 833d a749 3bbd 2fe1 3abd f7e1 90bd
000001e0: 1099 9ebd 4654 093d 5839 7d3d 3016 bbbd
000001f0: baa7 24bd da40 453d 254f 20bd 7c19 44bd
00000200: b14d a73e baa0 ebbe e545 4d3c 5b28 52bf
00000210: c6d9 ea3d b0c1 5f3e b83c 98c0 036f 0bbf
00000220: b9ad 573e c061 3c3c f2bd 373d 1bc2 a0c0
00000230: a0f3 b7bc 50b4 8cbe 723c 5bbd 0100 bf3c
00000240: f6d3 5bbd b0b1 b0bf a621 d9bf 7f5e 6fbf
00000250: 5cb6 633e 064a 1bc0 72d9 863e 76d4 a23d
00000260: b490 6bbf b5ed afbe d89f aabf fb20 e1be
00000270: a72c 20be 810e 1bbd 20a8 20be b7ef 27c0
00000280: e910 9d3e 2da8 a2bf 7fd9 0dc0 e506 503e
00000290: 1e97 2cbf 6b03 85c0 b76d 273f 45d8 883e
000002a0: 9f86 3a3e e89b ca3d b238 e0be 3e16 bcbe
000002b0: f237 66c0 36dd d7c0 a7c3 223e 8a66 c8bf
000002c0: 5dad acbf ea7f 67c0 f947 09c0 a598 f1be
000002d0: dcf1 a93e 9a5a f1be b743 7abe 12fd 01c0
000002e0: 5b33 31be ed9a 713f 279c ae3e 0c56 b53c
000002f0: efb0 a3bf 8c30 94bf 4654 1d3e 6e61 0dbe
00000300: 2d9b 23be ceaf c2bf 19ff 983d aa91 95c0
00000310: 82e3 4b3e f960 13c1 41b2 b7bd 6ac8 413e
00000320: 567f 82c0 7d8f ce3e 29fe 6fbf 5ff9 8dbe
00000330: 7c95 adbd 999a 67be c85f 55be 6560 1a3e
00000340: 683e 9cbe 4f64 3b3e 5714 d93b 0337 c3c0
00000350: b345 843e 0e3d 463b 0ae0 bdbe dd66 33be
00000360: d53e c1bc ee5e 13be 9ef5 de3b 954d 33bd
00000370: 8bb6 2d3d 5892 4e3e a049 1e3d 4e59 13c0
00000380: bb80 0ebe f7e5 76c0 a7da f7be a836 47bd
00000390: dd34 95c0 731d 2fc0 78f4 cabd 9f41 ac3d
000003a0: ebae 98bf 5458 aebf 5ec0 8f3d 74ac 203e
000003b0: 14a7 d8c0 fde3 8abd 5294 e9be 1c2c dfbc
000003c0: d86b dcbe 4215 01be 739c d53d 73c7 7f3d
000003d0: f889 013d af5d 4ec0 7e59 713e f271 dfc0
000003e0: ad74 79bf c100 81c0 fb14 8cbf 718e dd3c
000003f0: d2ac f8bc d53e 0c3e 4697 523d cc12 6e3e

fc2.bias f4 [128]
0.025116619 1.1022401 -0.04545368 -0.077238195 -0.073158704 -0.1253844 -0.09130831 -0.06533042
0.5448869 -0.095896624 -0.039477848 1.0220652 -0.049531993 0.8843761 1.1856539 -0.028951572
-0.08211602 -0.088876285 -0.12233134 1.0118653 -0.1204966 1.0007107 -0.040414475 1.000052
0.43209368 -0.27250114 -0.46744728 1.0671104 -0.0879529 -0.07174865 1.0186191 1.1084696
0.69181776 1.0773578 -0.03852587 0.3627102 0.9278855 -0.032453224 0.012942728 0.979429
-0.058873888 0.007203095 -0.10265286 -0.12572324 -0.10855196 0.9261264 0.02994857 -0.08098791
-0.10813495 -0.11000522 0.37607232 1.1654912 0.95308435 0.018190023 -0.013412635 0.012614578
-0.0051485007 -0.03355064 -0.07488868 0.96649355 -0.07302324 -0.068406165 -0.10315311 0.56330085
0.55480427 0.9524049 0.009185241 0.542061 -0.07995611 -0.10839932 0.8774916 -0.08295869
-0.12072207 0.9687769 -0.073204525 -0.053164594 0.82162243 0.9689943 1.028364 0.9809974
1.1862915 -0.01514894 0.86196524 0.037255242 0.74830985 -0.034612212 0.55573195 -0.0015187146
0.65027314 0.75265706 0.62202644 -0.3887799 -0.3451114 -0.31641468 -0.024938904 0.052343275
-0.08560844 -0.08891685 -0.05231373 1.0444274 0.10574258 1.1027416 -0.0827672 0.7547433
0.9975419 -0.012463719 -0.061480477 -0.03208921 -0.014418213 -0.006156224 -0.20882162 0.92251086
1.1596534 -0.080158286 0.56039184 -0.08242252 0.021381434 -0.103022866 -0.028647708 0.92387414
-0.01820849 -0.0334455 0.94290406 0.98677516 0.85793936 -0.08566432 -0.038405277 -0.018340714
00000000: 5ec1 cd3c 3416 8d3f a32d 3abd 0f2f 9ebd
00000010: 3bd4 95bd c564 00be daff babd f5cb 85bd
00000020: b57d 0b3f 7365 c4bd 86b3 21bd 08d3 823f
00000030: 0fe2 4abd 7966 623f 82c3 973f d92b edbc
00000040: 722c a8bd c504 b6bd db88 fabd cd84 813f
00000050: ecc6 f6bd 4a17 803f a689 25bd b401 803f
00000060: 623b dd3e 4585 8bbe 4055 efbe 1397 883f
00000070: a620 b4bd f5f0 92bd 1c62 823f 55e2 8d3f
00000080: f81a 313f dce6 893f 4dcd 1dbd 27b5 b93e
00000090: e789 6d3f aced 04bd bc0d 543c dcbb 7a3f
000000a0: bf25 71bd f107 ec3b aa3b d2bd 98bd 00be
000000b0: 7d50 debd 9f16 6d3f b456 f53c fddc a5bd
000000c0: db75 ddbd 6b4a e1bd 8d8c c03e d12e 953f
000000d0: 56fd 733f 3e03 953c abc0 5bbc 60ad 4e3c
000000e0: c1b4 a8bb 656c 09bd 3c5f 99bd 1f6c 773f
000000f0: 358d 95bd 8818 8cbd f041 d3bd 7c34 103f
00000100: a707 0e3f cfd0 733f b17d 163c 82c4 0a3f
00000110: 07c0 a3bd 7600 debd 4aa3 603f 3fe6 a9bd
00000120: 223d f7bd c301 783f 41ec 95bd 1ec3 59bd
00000130: d955 523f 0310 783f 6ea1 833f a522 7b3f
00000140: 66d8 973f 4233 78bc c1a9 5c3f f498 183d
00000150: 3c91 3f3f 89c5 0dbd 7344 0e3f 9b0f c7ba
00000160: 4d78 263f 22ae 403f 203d 1f3f 290e c7be
00000170: 71b2 b0be 1b01 a2be ac4c ccbc e765 563d
00000180: 7a53 afbd 0a1a b6bd ec46 56bd ccaf 853f
00000190: 918f d83d a326 8d3f da81 a9bd db36 413f
000001a0: e85e 7f3f a034 4cbc f4d2 7bbd fa6f 03bd
000001b0: 5e3a 6cbc 26ba c9bb 56d5 55be ac29 6c3f
000001c0: 866f 943f 072a a4bd d775 0f3f 23cd a8bd
000001d0: 1e28 af3c a7fd d2bd 99ae eabc 0483 6c3f
000001e0: f929 95bc 26fe 08bd 2962 713f 4c9d 7c3f
000001f0: eaa1 5b3f c670 afbd da4e 1dbd 443f 96bc

fc3.weight f4 [2, 128]
0.01540709 1.5087526 0.11342575 -0.028324638 -0.020965127 -0.03198923 0.008089864 0.0067179706
1.4093332 0.013136052 -0.064953394 2.22976 0.07221193 2.131735 1.7195681 -0.044226244
0.016187107 -0.021603175 -0.011183014 2.0361965 0.0022473035 2.084627 -0.01589458 2.1046638
1.0359348 -9.464137 -2.5135093 1.0499934 -0.019269992 0.0103608845 1.7301496 1.8209211
-2.166832 1.8271449 0.004686045 0.9311612 1.9903896 -0.0030836049 -0.026037745 1.9946705
-0.013023988 -0.022359101 0.011744324 -0.54962736 0.04096275 1.9044794 0.012801424 -0.038765226
0.0078925695 0.009556185 1.7311215 1.1935828 2.057769 0.021835491 0.01973805 -0.020780757
-0.00030720394 0.043126784 -0.19510126 2.6307387 -0.03395691 0.020478558 0.0052916417 -2.222429
-2.8713753 2.286035 -0.049063165 2.4208534 0.068082474 -0.016437642 1.9541829 0.009327355
0.026891945 1.7825569 0.007070269 -0.53564155 -0.546156 -0.98566663 1.703189 0.44992447
1.3503797 -0.018669017 2.5449648 -0.0065958174 2.4909549 -0.07259695 -3.3421667 -0.01285736
2.6265404 1.3246855 2.2327952 -4.8380737 -6.870362 0.8377059 -0.013330685 -0.028750835
0.072455846 0.035133168 -0.022459246 2.141941 -8.76279 1.4407396 0.011884171 1.2264621
1.3503052 0.00936234 0.010855576 -0.070048794 -0.028362589 0.018399889 -0.18512419 1.9824429
2.0884912 -0.083092004 -2.1953614 -0.011167751 0.018364737 -0.06287644 0.04062476 1.3520156
0.015160676 -0.07584874 2.0189242 2.0272274 2.3683279 0.03247608 0.087275356 -0.06043184
0.010630159 2.567266 -0.031319715 -0.013107432 -0.017678687 -0.014011662 -0.044861253 0.013771966
1.9325184 0.012602612 -0.01567259 1.7147976 -0.009849765 1.4170105 1.6889569 -0.024895698
0.009936624 0.01719552 0.009275148 1.5133272 -0.070371814 0.9898857 -0.0058952896 1.206856
-1.7489643 1.1180229 -1.5264951 2.0640898 -0.04877127 0.021024778 1.8859531 1.4564902
1.82387 1.800961 0.039371666 1.1303904 0.7873852 0.018902535 0.025449924 0.81463546
0.06494405 -0.05315909 -0.022644036 -0.09462718 0.024886861 0.8355675 0.007737285 0.04727152
0.02430591 -0.028992848 -2.630359 1.4079459 2.1474812 -0.03956781 0.0023882037 -0.025230458
-0.067587115 -0.019130588 0.27391967 0.9816512 0.013753375 -0.073994756 -0.077144496 2.4118
1.5595112 1.5896934 0.029617203 1.2690318 0.026353057 -0.00224797 0.6585335 -0.06591798
-0.059636842 1.0127058 0.008098612 -9.606232 3.786378 2.2590928 2.3053453 3.7931693
2.455404 -0.017163321 0.18189801 -0.0057523353 -2.013244 -0.019022891 1.7591146 0.01883387
-1.8102409 -1.1776443 -2.3588052 -6.003568 -6.0541053 -4.060693 0.003521038 0.030826986
-0.023339735 -0.026751192 -0.004441254 1.7135578 -8.042624 1.0854214 0.05104592 2.0374608
1.2692963 0.016508594 0.0013649246 0.034301072 0.06571921 -0.0034682741 0.3459833 0.9259446
1.7273746 -0.050110616 1.2504654 -0.027701227 0.023980763 -0.014291889 0.0520358 1.0727266
0.019848345 0.031090368 1.1797608 1.6876816 1.1715477 -0.05598555 -0.031053063 0.00990171
00000000: 056e 7c3c ce1e c13f c24b e83d 1209 e8bc
00000010: 0fbf abbc 2407 03bd 598b 043c 6c22 dc3b
00000020: 0865 b43f 9838 573c 4906 85bd 63b4 0e40
00000030: d9e3 933d 596e 0840 cf1a dc3f 9426 35bd
00000040: d39a 843c 24f9 b0bc f638 37bc 0b51 0240
00000050: 7f47 133b 876a 0540 5a35 82bc d0b2 0640
00000060: 8399 843f 1b6d 17c1 56dd 20c0 2f66 863f
00000070: 1adc 9dbc b3c0 293c 8b75 dd3f f113 e93f
00000080: 60ad 0ac0 e2df e93f 658d 993b 9560 6e3f
00000090: 16c5 fe3f 4e16 4abb 1c4d d5bc 5d51 ff3f
000000a0: 9162 55bc 6f2a b7bc 446b 403c 61b4 0cbf
000000b0: 8ec8 273d fbc5 f33f 10bd 513c 49c8 1ebd
000000c0: d64f 013c 8c91 1c3c 6495 dd3f 52c7 983f
000000d0: 7db2 0340 58e0 b23c b1b1 a13c 683c aabc
000000e0: 3710 a1b9 b6a5 303d a0c8 47be 065e 2840
000000f0: 6716 0bbd a6c2 a73c 8265 ad3b 473c 0ec0
00000100: 9dc4 37c0 664e 1240 75f6 48bd 43ef 1a40
00000110: d36e 8b3d 3ca8 86bc aa22 fa3f c3d1 183c
00000120: 7f4c dc3c d32a e43f b7ad e73b ce1f 09bf
00000130: e1d0 0bbf a654 7cbf 1902 da3f 805c e63e
00000140: 3ed9 ac3f c4ef 98bc b4e0 2240 ba21 d8bb
00000150: ce6b 1f40 b6ad 94bd 0fe6 55c0 ada7 52bc
00000160: 3d19 2840 4b8f a93f 1ee6 0e40 80d1 9ac0
00000170: 01da dbc0 e573 563f f268 5abc df86 ebbc
00000180: bb63 943d cce7 0f3d 74fc b7bc 9015 0940
00000190: 6334 0cc1 286a b83f d3b5 423c b6fc 9c3f
000001a0: cdd6 ac3f 8064 193c 96db 313c be75 8fbd
000001b0: a958 e8bc 5dbb 963c 3291 3dbe b0c0 fd3f
000001c0: d7a9 0540 242c aabd cd80 0cc0 f1f8 36bc
000001d0: a571 963c 5dc5 80bd 2666 263d d90e ad3f
000001e0: 7c64 783c 9656 9bbd 0e36 0140 18be 0140
000001f0: af92 1740 a305 053d 6cbd b23d 6187 77bd
00000200: 1e2a 2e3c 164e 2440 1a49 00bd 8ec0 56bc
00000210: e5d2 90bc 2c91 65bc 6fc0 37bd d0a3 613c
00000220: c35c f73f 307b 4e3c ce63 80bc 7d7e db3f
00000230: e960 21bc 9a60 b53f bd2f d83f 10f2 cbbc
00000240: 39cd 223c 9fdd 8c3c caf6 173c b5b4 c13f
00000250: 191f 90bd 2669 7d3f 462d c1bb 427a 9a3f
00000260: 10de dfbf 601b 8f3f 3164 c3bf 0c1a 0440
00000270: 62c4 47bd 283c ac3c e966 f13f 456e ba3f
00000280: 9274 e93f e485 e63f 2f44 213d a2b0 903f
00000290: 1492 493f 7dd9 9a3c 5c7c d03c f38b 503f
000002a0: 6301 853d 59bd 59bd fc7f b9bc e5cb c1bd
000002b0: 88df cb3c c0e7 553f 0d89 fd3b c89f 413d
000002c0: 301d c73c 6982 edbc cd57 28c0 9237 b43f
000002d0: 5570 0940 db11 22bd 6983 1c3b 1bb0 cebc
000002e0: 1d6b 8abd c0b7 9cbc 333f 8c3e 7e4d 7b3f
000002f0: d655 613c 908a 97bd effd 9dbd ee5a 1a40
00000300: 109e c73f 137b cb3f c79f f23c a26f a23f
00000310: 5ee2 d73c ae52 13bb a795 283f 0200 87bd
00000320: c345 74bd 58a0 813f 0ab0 043c 20b3 19c1
00000330: 0454 7240 fa94 1040 c78a 1340 49c3 7240
00000340: 5725 1d40 189a 8cbc 7943 3a3e 167e bcbb
00000350: fdd8 00c0 e5d5 9bbc ab2a e13f 7d49 9a3c
00000360: f9b5 e7bf 0cbd 96bf aaf6 16c0 3b1d c0c0
00000370: 3bbb c1c0 32f1 81c0 37c1 663b e088 fc3c
00000380: f932 bfbc 5125 dbbc f087 91bb dd55 db3f
00000390: 97ae 00c1 17ef 8a3f 8715 513d c265 0240
000003a0: 4d78 a23f 083d 873c 45e7 b23a 487f 0c3d
000003b0: cb97 863d fc4b 63bb b924 b13e b50a 6d3f
000003c0: 9c1a dd3f ca40 4dbd 400f a03f afed e2bc
000003d0: 4e73 c43c 8728 6abc 7e23 553d 1b4f 893f
000003e0: ff98 a23c 3ab1 fe3c 6702 973f f305 d83f
000003f0: 46f5 953f 1b51 65bd fe62 febc c83a 223c

fc3.bias f4 [2]
0.7831613 0.94996583
00000000: 427d 483f f630 733f
