weights/dqn_curriculum_random.pth (torch, 72829 bytes, 6 tensors)

fc1.weight f4 [128, 4]
-0.006340261 -0.014282621 -1.8399351 0.14923689 -0.44892833 -0.33925763 -1.2659266 -0.28720537
-0.002022995 0.38371763 0.62494034 0.4579493 -0.17214353 0.055938933 -0.1631767 0.5999311
0.42964116 0.51796 2.663027 0.6977014 -0.24295963 -0.048955735 0.2117576 0.09350357
0.22350016 -0.04801239 3.9853637 -0.85385704 0.08892557 -0.30147764 1.8517724 -0.10974735
-0.071777426 -0.046977606 2.2327724 -0.008254906 0.6935935 -0.18855177 0.0047747223 -0.31650007
0.031312406 -0.07000154 -3.609294 -0.7248142 -0.74023616 -0.63026136 -0.86240274 -0.39464304
0.026415966 -0.22785513 -0.8299629 -0.20244725 0.00894834 -0.0031147846 3.2098148 0.3346971
-0.003319772 0.038800187 0.65405566 0.028833155 -0.26201302 0.07103623 -1.2104375 -0.04307164
0.17581493 -0.14540757 1.7869964 0.090218715 -0.14567524 -0.5253215 1.4344273 -0.2188819
0.17626917 -0.03772008 -1.9884013 -0.24614641 -0.06524026 -0.01029956 1.8526477 0.17086254
0.0006887805 -0.009361966 3.4052505 0.08996969 -0.010945175 0.12864798 1.48551 -0.2419202
0.03148031 0.35481393 1.190283 0.26578474 0.18579149 0.025795534 0.0020347524 -1.3365984
0.030230079 -0.8784027 0.20732369 -0.6344781 0.0016785001 -0.015533913 3.827224 0.17107253
0.5420962 0.5463447 1.6837707 0.47939086 0.24621609 0.21067725 -2.034999 0.25523463
-0.24939135 0.32986945 -0.15732421 0.7917972 -0.0058835666 -0.028561583 -3.918307 -0.2592227
0.0015123027 0.0065892674 2.9360735 0.4525139 0.6879465 0.45810854 0.9303164 0.30606237
-0.008305634 0.111215405 -2.0846965 1.1484115 0.22015256 -0.23930013 1.1780027 0.023716839
0.015177746 0.0016090263 3.3690886 0.29928982 0.036542654 0.029367907 2.2324073 0.20483269
-0.021503562 0.2511807 -0.28809184 0.08901138 -0.0027466358 0.030585242 2.8325126 0.25149557
-0.19249947 0.08520604 -1.6409352 -0.2714961 0.0117217 -0.029695338 2.734844 0.30172318
-0.106761135 0.15757827 2.018992 0.20948279 -0.037944086 -0.15329646 -2.4540365 -0.51380664
0.041709304 -0.5805817 0.32807708 -0.21228911 -0.02841869 0.019896636 2.8944204 0.77444273
0.3005147 -0.8235471 -0.8362517 -0.62067 0.054765366 -0.087450325 0.68282664 -0.16867186
-0.04999547 0.41397366 -0.2605555 0.3192728 0.088913046 -0.043723892 2.2937593 0.2595331
0.04653819 -0.00715689 -2.1379678 -0.19991799 0.021181522 -0.0031765706 2.782142 0.084554106
0.019945279 -0.0048279264 3.2275863 0.2002304 -0.008766369 -0.029051034 -3.8691735 -0.3954235
0.084796816 -0.4780238 0.00718337 -0.36491767 -0.034969244 -0.007868695 0.30507547 0.0009116507
0.07229895 -0.23149984 0.893966 1.0785056 -0.535207 -0.09823278 0.3913352 -0.0004827935
-0.045576174 -0.018182745 -1.9145454 -0.15889071 0.06733477 -0.08497919 -0.19885382 -0.09496632
-0.38950035 -0.72535825 -1.5475055 -0.6165412 -0.06080631 0.22733602 0.9329472 0.16027948
-0.06360335 0.03075568 -1.2328442 0.13102707 -0.032775965 0.077599645 0.9255086 0.010587141
0.016270014 0.02751507 1.0143691 0.23561157 -0.009924549 -0.057557918 -3.071021 -0.29979813
00000000: f7c1 cfbb a801 6abc fe82 ebbf 8ed1 183e
00000010: efd9 e5be 2db3 adbe e209 a2bf 950c 93be
00000020: 3994 04bb a376 c43e 17fc 1f3f 5578 ea3e
00000030: 6546 30be 3920 653d cb17 27be 1695 193f
00000040: edf9 db3e 0799 043f 096f 2a40 8f9c 323f
00000050: 69ca 78be cf85 48bd fcd6 583e cd7e bf3d
00000060: 3add 643e a4a8 44bd 3310 7f40 6096 5abf
00000070: 9c1e b63d 475b 9abe e106 ed3f 38c3 e0bd
00000080: 0b00 93bd 976b 40bd bee5 0e40 963f 07bc
00000090: 588f 313f b713 41be 4675 9c3b 4c0c a2be
000000a0: 7041 003d f85c 8fbd acfe 66c0 6c8d 39bf
000000b0: 1e80 3dbf cf58 21bf 6dc6 5cbf a70e cabe
000000c0: 4c66 d83c db52 69be 7378 54bf 554e 4fbe
000000d0: 0f9c 123c 6a21 4cbb 9b6d 4d40 6b5d ab3e
000000e0: 8890 59bb f2ec 1e3d 3170 273f 8233 ec3c
000000f0: 9226 86be 717b 913d 9eef 9abf e36b 30bd
00000100: d408 343e b9e5 14be 4cbc e43f 97c4 b83d
00000110: e42b 15be 787b 06bf 509b b73f 9422 60be
00000120: e87f 343e 5f80 1abd ef83 febf ce0d 7cbe
00000130: af9c 85bd 7cbf 28bc 8f23 ed3f 97f6 2e3e
00000140: 478f 343a ee62 19bc a0ef 5940 0742 b83d
00000150: 6453 33bc 4cbc 033e 3125 be3f eeb9 77be
00000160: 7ff1 003d 2caa b53e 315b 983f f014 883e
00000170: 2040 3e3e 2851 d33c 7b59 053b a815 abbf
00000180: 12a5 f73c 00df 60bf a94c 543e 286d 22bf
00000190: 1e01 dc3a f481 7ebc 3df1 7440 a32d 2f3e
000001a0: d1c6 0a3f 3fdd 0b3f cc85 d73f b872 f53e
000001b0: 1220 7c3e c7bb 573e 6c3d 02c0 1dae 823e
000001c0: 7260 7fbe a6e4 a83e 9919 21be 39b3 4a3f
000001d0: efca c0bb fbf9 e9bc 8bc5 7ac0 d6b8 84be
000001e0: 7538 c63a c8ea d73b a1e8 3b40 e7af e73e
000001f0: 431d 303f 348d ea3e 3729 6e3f 35b4 9c3e
00000200: 5b14 08bc e7c4 e33d ab6b 05c0 26ff 923f
00000210: ac6f 613e 180b 75be cbc8 963f d149 c23c
00000220: 15ac 783c f7e5 d23a 269f 5740 843c 993e
00000230: c0ad 153d f794 f03c c3df 0e40 a9bf 513e
00000240: 3d28 b0bc c29a 803e c680 93be 994b b63d
00000250: e700 34bb e78d fa3c e347 3540 07c4 803e
00000260: 951e 45be 8180 ae3d 2a0a d2bf 8901 8bbe
00000270: 600c 403c a343 f3bc af07 2f40 767b 9a3e
00000280: 95a5 dabd 335c 213e 2a37 0140 a882 563e
00000290: 426b 1bbd bff9 1cbe ef0e 1dc0 d588 03bf
000002a0: 60d7 2a3d 01a1 14bf b8f9 a73e 5162 59be
000002b0: 50ce e8bc 45fe a23c 2f3e 3940 e141 463f
000002c0: 10dd 993e fcd3 52bf 9714 56bf 3be4 1ebf
000002d0: a651 603d 2819 b3bd bacd 2e3f 51b8 2cbe
000002e0: 0dc8 4cbd 5bf4 d33e 8867 85be b977 a33e
000002f0: 0b18 b63d d317 33bd f4cc 1240 86e1 843e
00000300: d49e 3e3d 5884 eabb 77d4 08c0 4db7 4cbe
00000310: df84 ad3c 032e 50bb 9d0e 3240 b42a ad3d
00000320: 4864 a33c 9533 9ebb c690 4e40 3309 4d3e
00000330: d1a0 0fbc 6ffc edbc 8aa0 77c0 f374 cabe
00000340: f4a9 ad3d 89bf f4be 7a62 eb3b 7dd6 babe
00000350: e93b 0fbd b3eb 00bc da32 9c3e d8fb 6e3a
00000360: 7911 943d 4b0e 6dbe f5da 643f 790c 8a3f
00000370: 5303 09bf 452e c9bd 165d c83e 721f fdb9
00000380: 15ae 3abd fbf3 94bc d30f f5bf 3fb4 22be
00000390: d0e6 893d 9209 aebd 56a0 4bbe b47d c2bd
000003a0: 976c c7be 14b1 39bf a914 c6bf a5d5 1dbf
000003b0: 0a10 79bd c6ca 683e a1d5 6e3f 4e20 243e
000003c0: 7942 82bd 56f3 fb3c d7cd 9dbf f62b 063e
000003d0: 1740 06bd 90ec 9e3d 22ee 6c3f b075 2d3c
000003e0: b148 853c 4967 e13c d9d6 813f 2944 713e
000003f0: 939a 22bc dac1 6bbd 9c8b 44c0 247f 99be

fc1.bias f4 [128]
0.42478442 -1.0387666 -0.5048481 -0.866406 -1.5681839 -0.94788027 -0.99962753 0.27116686
0.87354046 -0.9169483 -1.1423842 -1.7667797 0.24701619 -0.66656613 -0.26501554 -0.5227209
0.49031726 -0.39505532 0.9621993 -0.3508127 -0.6422838 0.049641676 0.14877838 -1.796668
-0.20712665 -0.7451695 -1.5313437 -0.7022694 -1.5216115 -0.76206595 -0.70465136 -1.608319
0.32633334 -0.66120327 -0.68461436 0.6117898 -0.11200848 0.7770915 -0.2514485 0.70875806
-0.8923518 -0.7121239 -0.1572507 -1.2645973 -0.6399326 -0.43871984 -0.7434568 0.59000933
0.62844133 -0.652321 -0.6471544 -0.7502925 -0.43129596 -0.19184554 -1.581087 -1.2592957
0.54308325 -0.34467226 -1.020959 0.260004 -0.45283982 -0.4189867 -0.57713294 -0.63265246
-0.73644626 -0.66233045 -1.2944354 -0.79810387 0.3174535 -1.3844002 -0.14130467 -0.59239864
-0.16801554 -0.30349204 -0.53844225 -1.096367 -0.1962833 -0.8337303 0.18101808 -0.16302732
-1.411564 0.06318668 -1.4983294 0.6629648 -1.0763934 -0.99273163 -0.70590466 -0.5964889
0.7707141 0.63065374 -0.20522939 -0.046020154 0.3218893 -0.71320736 -0.83119327 -0.35114157
0.03705914 0.4434988 -0.74534523 0.11732021 -1.5415205 -0.24735983 -0.7967833 -0.5376711
0.87183344 -0.6631261 -0.87673515 -0.74113286 -1.2719412 -0.36737895 0.36790797 0.16542324
-0.8604849 0.6921841 -1.6540248 -0.5914223 0.034570817 -0.6934529 0.18373735 -0.7172399
-0.53292215 -0.62150025 -0.9282432 -0.51713824 -1.230273 -0.79564637 0.36986542 -0.10791739
00000000: 587d d93e 4ef6 84bf ba3d 01bf c9cc 5dbf
00000010: 40ba c8bf 48a8 72bf 97e7 7fbf 62d6 8a3e
00000020: 59a0 5f3f 20bd 6abf a539 92bf d625 e2bf
00000030: d0f1 7c3e 14a4 2abf 1eb0 87be 09d1 05bf
00000040: dd0a fb3e b144 cabe b152 763f b99d b3be
00000050: b66c 24bf 1255 4b3d 5c59 183e 38f9 e5bf
00000060: 0219 54be 6ec3 3ebf 1203 c4bf edc7 33bf
00000070: 2ac4 c2bf c116 43bf 0864 34bf 66dd cdbf
00000080: 2a15 a73e 9e44 29bf e342 2fbf 429e 1c3f
00000090: b464 e5bd 78ef 463f dcbd 80be 2b71 353f
000000a0: 2b71 64bf c04d 36bf 5406 21be 53de a1bf
000000b0: 9fd2 23bf e39f e0be 2f53 3ebf da0a 173f
000000c0: 88e1 203f 82fe 26bf e9ab 25bf 2b13 40bf
000000d0: d3d2 dcbe 2873 44be 0f61 cabf 9a30 a1bf
000000e0: 8107 0b3f e278 b0be c9ae 82bf 3f1f 853e
000000f0: 9fda e7be 6d85 d6be fcbe 13bf 83f5 21bf
00000100: be87 3cbf 7d8e 29bf 0fb0 a5bf 8950 4cbf
00000110: 4489 a23e 0734 b1bf 2cb2 10be 70a7 17bf
00000120: 440c 2cbe 4f63 9bbe 5ad7 09bf c155 8cbf
00000130: 7dfe 48be 596f 55bf ce5c 393e a2f0 26be
00000140: 21ae b4bf 0568 813d 42c9 bfbf 10b8 293f
00000150: 42c7 89bf a923 7ebf 2bb6 34bf 7fb3 18bf
00000160: 854d 453f 8672 213f a727 52be a17f 3cbd
00000170: adce a43e c294 36bf 15c9 54bf d4c8 b3be
00000180: 53cb 173d 4612 e33e f2ce 3ebf 9445 f03d
00000190: 8b50 c5bf e54b 7dbe fef9 4bbf d0a4 09bf
000001a0: 7a30 5f3f a2c2 29bf b771 60bf e2ba 3dbf
000001b0: f8ce a2bf 1819 bcbe 6f5e bc3e b664 293e
000001c0: bd48 5cbf fa32 313f 16b7 d3bf 7467 17bf
000001d0: 219a 0d3d 2186 31bf a525 3c3e 099d 37bf
000001e0: 966d 08bf a41a 1fbf 59a1 6dbf 2c63 04bf
000001f0: 9679 9dbf 7baf 4bbf 005f bd3e cb03 ddbd

fc2.weight f4 [128, 128]
-0.02849281 0.016493727 -0.09872947 0.044739954 0.04393934 0.0743314 -0.05708576 -0.1431459
-0.12324136 -0.08463376 -0.050209742 -0.032883808 -0.04359241 0.0698421 -0.076246016 0.018774124
-0.043694645 -0.015259823 -0.046857715 -0.0028736072 0.1250776 -0.16406474 -0.07260785 -0.07158367
-0.08004526 -0.040940873 0.008864614 0.029712958 -0.02807731 0.09563596 -0.05573824 -0.04665561
-0.06868519 -0.022616178 0.017619796 -0.06658027 -0.01310983 -0.051892158 -0.058667652 -0.19623314
0.10971348 -0.06935656 -0.1312912 -0.12534958 -0.10301106 -0.0021803475 -0.0008264625 -0.120292395
-0.121033445 -0.04802909 -0.021039987 -0.059884258 -0.019488143 -0.12509803 0.07215306 0.011111634
-0.011369347 -0.07291608 -0.01954485 0.00035536845 0.009596955 -0.09877537 -0.08119077 -0.047886707
0.0980902 0.05430206 -0.037524607 -0.061749514 -0.053082757 0.039225765 -0.16432458 0.17627117
0.00064431457 -0.041468874 -0.017553132 -0.06957472 -0.17106646 0.085779 -0.008513388 -0.11234852
-0.10406853 0.054747473 -0.03557161 -0.11561504 -0.065066375 0.043928634 -0.072349705 -0.075844385
-0.15070818 0.024185538 -0.085919864 -0.13599963 -0.100301325 -0.109043986 -0.0034685787 -0.14444241
-0.119871914 -0.14048986 -0.1057485 -0.050555784 -0.026702061 -0.0875519 -0.0019414993 -0.0980132
-0.08829595 0.037477314 0.11502799 -0.016621672 -0.16921939 -0.047463883 -0.036234297 -0.049580716
-0.02572337 -0.12076972 0.067979276 -0.0035049384 0.060421575 -0.086962104 0.06569646 -0.109295614
0.025517903 0.13915057 -0.014899367 0.08608425 0.13415204 -0.11327015 -0.0031247025 -0.050728522
0.18796349 -0.60631895 -0.4294248 -0.27480328 -10.900512 0.043746475 -0.341266 -0.16377234
0.35474503 -0.23003663 0.61278987 -4.755681 0.11642148 -11.718381 -0.10196043 0.13342185
-0.051961105 -0.30762935 0.46693707 -0.9199239 -6.114289 -0.27856064 -0.22764532 0.74886924
-0.28007436 -13.279843 -4.919849 -0.062009733 -0.43367526 0.7466937 -11.672742 -4.647952
-0.3526941 -0.34075025 -13.36359 0.32906255 -0.20630525 0.5058621 0.27034363 0.46201253
-0.7551764 -0.28276443 -0.15141858 -3.882968 -0.4427023 0.16681688 -0.74605924 0.4020412
0.37960613 -12.177742 -8.683228 1.0398829 -0.3986252 0.05866089 0.62376875 -3.6589618
0.23581992 -0.032829467 -1.248936 0.0775342 0.39393336 -0.066992216 0.26558974 0.58213234
-8.969053 0.11115183 -2.325497 -0.40731597 -0.19618899 -0.7942743 -0.09939846 0.5168765
0.23548427 -0.06892013 -0.79379433 1.356085 0.008564107 -9.087566 0.03648579 -0.16089347
-0.92112523 0.038217146 -6.135073 0.45046026 0.2766718 0.6002654 -0.32837126 0.25175267
0.40418103 0.34262654 0.046803273 -0.21126701 -0.0493061 1.2262405 -1.5192214 -0.022271413
-0.18220554 -0.06867893 -0.3428772 0.18968287 -5.776717 0.06585741 1.0602793 -0.78956914
0.41357672 0.15497285 -1.0752873 -13.586625 0.83345336 -0.027274892 0.14036356 -0.09136851
0.45456666 0.38518068 -3.9558403 -0.4804438 0.09428822 -0.1529044 -0.38032454 -1.0681927
0.0248266 0.770289 -1.032372 0.3650447 -2.7107944 0.3417423 0.17555718 0.14283544
00000000: c169 e9bc da1d 873c ad32 cabd 3e41 373d
00000010: bdf9 333d 103b 983d c2d2 69bd d794 12be
00000020: f765 fcbd 7754 adbd bba8 4dbd 2cb1 06bd
00000030: f48d 32bd 6009 8f3d df26 9cbd 31cc 993c
00000040: 28f9 32bd 5604 7abc e0ed 3fbd 2153 3cbb
00000050: 5814 003e 9600 28be 6db3 94bd 769a 92bd
00000060: c5ee a3bd 9eb1 27bd e33c 113c 9768 f33c
00000070: 6302 e6bc c9dc c33d c84d 64bd f419 3fbd
00000080: d2aa 8cbd 9045 b9bc 6457 903c 3d5b 88bd
00000090: 9dca 56bc df8c 54bd 7e4d 70bd 57f1 48be
000000a0: 76b1 e03d d00a 8ebd 3371 06be a45b 00be
000000b0: 76f7 d2bd 29e4 0ebb f6a6 58ba dc5b f6bd
000000c0: 62e0 f7bd 27ba 44bd 0d5c acbc 3249 75bd
000000d0: 99a5 9fbc b319 00be fcc4 933d 920d 363c
000000e0: 7f46 3abc 0755 95bd 851c a0bc bf50 ba39
000000f0: 8c3c 1d3c be4a cabd 5947 a6bd da24 44bd
00000100: 84e3 c83d d66b 5e3d 67b3 19bd 0fed 7cbd
00000110: 4e6d 59bd 32ab 203d b444 28be 6e80 343e
00000120: 38e7 283a 44db 29bd 96cb 8fbc 317d 8ebd
00000130: 0c2c 2fbe e6ac af3d bd7b 0bbc fb16 e6bd
00000140: e221 d5bd e33e 603d 89b3 11bd 94c7 ecbd
00000150: 8541 85bd 83ee 333d 152c 94bd 4d54 9bbd
00000160: 3f53 1abe c020 c63c c1f6 afbd 7d43 0bbe
00000170: c86a cdbd 7452 dfbd 1851 63bb b6e8 13be
00000180: 687f f5bd 93dc 0fbe ab92 d8bd 9513 4fbd
00000190: 48be dabc 694e b3bd e879 feba 25bb c8bd
000001a0: 82d4 b4bd d081 193d cb93 eb3d 2c2a 88bc
000001b0: d947 2dbe 7d69 42bd 6a6a 14bd 2615 4bbd
000001c0: d1b9 d2bc 1d56 f7bd b838 8b3d 1cb3 65bb
000001d0: 9d7c 773d 3019 b2bd de8b 863d 61d6 dfbd
000001e0: ec0a d13c 7d7d 0e3e 791c 74bc f04c b03d
000001f0: 275f 093e 2efa e7bd cfc7 4cbb b6c8 4fbd
00000200: 8079 403e b837 1bbf 91dd dbbe 04b3 8cbe
00000210: 7f68 2ec1 812f 333d 6bba aebe f0b3 27be
00000220: 24a1 b53e b98e 6bbe ccdf 1c3f 8a2e 98c0
00000230: 636e ee3d 7d7e 3bc1 a1d0 d0bd bd9f 083e
00000240: 2bd5 54bd 9881 9dbe 6012 ef3e 2280 6bbf
00000250: 41a8 c3c0 809f 8ebe db1b 69be e5b5 3f3f
00000260: e865 8fbe 3d7a 54c1 676f 9dc0 ebfd 7dbd
00000270: af0a debe 5127 3f3f 8dc3 3ac1 06bc 94c0
00000280: 5294 b4be d176 aebe 44d1 55c1 e37a a83e
00000290: af41 53be 2e80 013f 7b6a 8a3e e88c ec3e
000002a0: 3e53 41bf 80c6 90be 790d 1bbe 8c82 78c0
000002b0: e0a9 e2be 0bd2 2a3e bdfd 3ebf 58d8 cd3e
000002c0: bc5b c23e 08d8 42c1 80ee 0ac1 e21a 853f
000002d0: 9a18 ccbe 6746 703d 4faf 1f3f 6e2c 6ac0
000002e0: c77a 713e 3178 06bd 23dd 9fbf 40ca 9e3d
000002f0: a2b1 c93e 3733 89bd 61fb 873e a006 153f
00000300: 3e81 0fc1 92a3 e33d f1d4 14c0 b88b d0be
00000310: c4e5 48be 8f55 4bbf 6b91 cbbd 0552 043f
00000320: ca22 713e ff25 8dbd 1b36 4bbf 3194 ad3f
00000330: 7850 0c3c ac66 11c1 2072 153d 42c1 24be
00000340: ddce 6bbf 9589 1c3d 8552 c4c0 baa2 e63e
00000350: eda7 8d3e feaa 193f 4720 a8be bae5 803e
00000360: d1f0 ce3e bf6c af3e cab4 3f3d 6156 58be
00000370: 31f5 49bd 73f5 9c3f d975 c2bf 8a72 b6bc
00000380: 1794 3abe 8aa7 8cbd 9a8d afbe 3a3c 423e
00000390: deda b8c0 40e0 863d 3bb7 873f 3421 4abf
000003a0: 54c0 d33e 34b1 1e3e 04a3 89bf d162 59c1
000003b0: 335d 553f 986f dfbc 77bb 0f3e 6a1f bbbd
000003c0: f6bc e83e 6736 c53e 7d2c 7dc0 bbfc f5be
000003d0: 2f1a c13d f992 1cbe e6b9 c2be 8aba 88bf
000003e0: 2761 cb3c a931 453f c424 84bf 24e7 ba3e
000003f0: a87d 2dc0 d9f8 ae3e 43c5 333e 7443 123e

fc2.bias f4 [128]
-0.0051905643 0.65995944 0.50316024 -0.01537729 0.7207283 -0.090697475 -0.06689403 -0.12049831
-0.46347407 -0.019874578 -0.1239408 0.83073723 0.6687114 0.03185142 -0.09269129 0.70433754
0.6148534 0.76709175 -0.11393386 -0.0076488717 0.036148917 0.71821356 -0.1035821 -0.009438975
-0.09837949 -0.120831385 0.050213527 0.766792 0.76139665 -0.124625444 -0.22617294 -0.11087446
0.6372932 -0.05790738 0.02171232 0.8594198 0.52718365 -0.02669835 0.8874424 0.8020013
0.71654075 0.618404 -0.28478828 0.035581145 0.77780753 0.73179144 -0.038354106 -0.20366578
-0.12028444 0.62141013 -0.024685908 0.33136243 0.91771597 0.7373358 -0.095247306 0.04629467
0.5939938 0.042087168 0.0015662089 -0.08578403 -0.06537885 0.62840426 0.6892611 -0.30776665
-0.30263582 -0.26420787 -0.1062602 -0.09195466 0.94190705 0.43008524 -0.0035738368 0.914946
-0.05341029 -0.09745996 -0.015152282 0.6755758 0.018653724 -0.08768985 -0.0770009 -0.07047192
0.053299244 0.6683225 -0.041903447 0.027877152 0.012579222 -0.07462352 -0.08116083 0.70530325
-0.099158324 0.034122266 0.1470971 -0.027683144 0.6596869 0.019033456 -0.057396654 0.7046492
-0.24425058 -0.30943376 0.6337596 0.73732 0.5587035 0.0015453855 -0.019356214 -0.07757281
-0.0011538971 0.034100104 -0.08395662 -0.017358646 0.68230426 0.16684802 -0.031203441 -0.123322316
0.022950927 -0.04042186 0.014814315 -0.06685425 -0.038996715 0.9489566 -0.102561615 0.5381607
0.6937177 -0.061448768 0.41632318 -0.7301078 0.8450745 0.7092752 0.6378438 0.6480878
00000000: 9c15 aabb 1af3 283f 1ccf 003f 07f1 7bbc
00000010: a681 383f 99bf b9bd bdff 88bd d1c7 f6bd
00000020: 794c edbe 03d0 a2bc add4 fdbd 32ab 543f
00000030: ac30 2b3f a276 023d eed4 bdbd 774f 343f
00000040: 0867 1d3f 2060 443f 2856 e9bd 63a3 fabb
00000050: e310 143d d8dc 373f da22 d4bd eea5 1abc
00000060: 307b c9bd 7276 f7bd b3ac 4d3d 7b4c 443f
00000070: e4ea 423f a03b ffbd e199 67be 2612 e3bd
00000080: a625 233f 4a30 6dbd 09de b13c f002 5c3f
00000090: 82f5 063f 80b6 dabc 6d2f 633f f54f 4d3f
000000a0: 376f 373f b94f 1e3f c5cf 91be 89bd 113d
000000b0: 651e 473f af56 3b3f 3219 1dbd c38d 50be
000000c0: b057 f6bd bc14 1f3f 1a3a cabc 56a8 a93e
000000d0: 6fef 6a3f 0ac2 3c3f 0511 c3bd 7b9f 3d3d
000000e0: fa0f 183f 9863 2c3d 4049 cd3a 8aaf afbd
000000f0: 59e5 85bd 1adf 203f 6a73 303f 9793 9dbe
00000100: 15f3 9abe 4146 87be f39e d9bd ba52 bcbd
00000110: d220 713f 2234 dc3e 0837 6abb e739 6a3f
00000120: c0c4 5abd 1699 c7bd 4741 78bc 89f2 2c3f
00000130: b2cf 983c bc96 b3bd a6b2 9dbd 9553 90bd
00000140: 4f50 5a3d 2f17 2b3f f3a2 2bbd a05e e43c
00000150: 1519 4e3c 37d4 98bd a637 a6bd c18e 343f
00000160: 8513 cbbd cac3 0b3d 9fa0 163e c3c7 e2bc
00000170: 3ee1 283f 0dec 9b3c c118 6bbd e463 343f
00000180: d31c 7abe 1a6e 9ebe 123e 223f 01c1 3c3f
00000190: 3107 0f3f 888e ca3a ec90 9ebc 7ede 9ebd
000001a0: 5d3e 97ba 8dac 0b3d 73f1 abbd b833 8ebc
000001b0: 7eab 2e3f 35da 2a3e 5c9e ffbc 6990 fcbd
000001c0: 9503 bc3c 6491 25bd beb7 723c e2ea 88bd
000001d0: 05bb 1fbd d2ee 723f d30b d2bd e6c4 093f
000001e0: 7c97 313f b4b1 7bbd 5028 d53e 58e8 3abf
000001f0: cd56 583f 0f93 353f bb49 233f 15e9 253f

fc3.weight f4 [2, 128]
0.028313503 2.1209838 -1.7953964 -0.00061045296 0.73723453 0.065506585 -0.0059330827 -0.025084205
2.3903837 -0.029048868 0.024395388 1.7089667 0.5423701 -0.040903743 -0.0417535 0.82315373
0.18385272 1.5466908 0.061265934 -0.0014275631 0.0037793713 1.7340589 -0.05048472 -0.06964146
-0.05246522 -0.052252512 0.01865795 0.18762958 1.4351531 -0.009496533 4.5387745 0.005360564
0.7768407 -0.039142605 -0.0330052 1.9545808 1.4503005 -0.05409768 1.9825377 1.4419119
0.69657177 -1.6161858 2.712798 0.048841484 0.61214566 0.73805195 -0.02191464 -2.9328265
-0.043879773 -1.2350637 0.03170421 1.4289312 1.4168506 1.924653 -0.0062696035 0.023952553
-0.07260548 -0.0035023305 0.9476605 -0.006922631 -0.04058226 1.9009161 0.78725827 -3.8038728
-7.990311 -7.2962794 0.012752016 0.011440531 1.8417317 1.286807 -0.022417804 3.7167284
0.02630359 -0.00838395 -0.07402122 0.29841432 0.023742173 0.012297781 0.4403847 1.2320654e-06
-0.051774625 0.6587413 0.045746103 -0.012248375 0.08668941 -0.0073141064 -0.03395343 0.7448036
0.08111426 0.07339445 0.694198 -0.0035784063 -0.14739834 -0.023571452 0.023393499 -0.33118165
-8.3046255 -0.015273425 0.84241414 0.80303025 0.27324387 -0.039006818 0.006829148 0.0066573136
0.02327956 0.018057233 0.026784504 -0.020210585 2.1541698 0.5307007 0.014191709 0.016506817
0.01243371 0.012217341 0.022134135 -0.020580817 -0.049074043 1.7120676 0.038983405 1.5255466
0.82947 0.06790841 -1.8441708 -3.295821 1.8163279 0.6640704 0.54097766 2.1795886
-0.07237447 -0.15478845 0.8776419 -0.060565207 1.0536363 -0.0126300985 0.020401401 -0.062986985
-8.082279 0.0055786893 0.029329464 1.5728936 1.1230266 0.0057617994 -0.016072702 1.1245041
1.4223989 0.40902483 -0.036416825 -0.009552425 -0.046721008 1.5846701 -0.03660281 0.005507918
-0.016746754 -0.0032422112 -0.027387632 3.2152476 0.8592132 -0.048407435 -6.7209897 -0.08001684
1.000951 -0.053161673 -0.043493688 -0.038909234 -0.025563547 0.066606425 1.543334 2.0368333
1.1086566 1.2728095 -8.66991 0.0042490344 1.0755645 1.0979943 -0.0038442935 -6.680985
0.0060109207 1.0682571 -0.019119067 2.0438063 0.7493847 1.2088467 0.036193796 -0.016283246
1.5902239 -0.004284951 0.8392462 0.0046593016 -0.0135278925 -1.5601687 1.1065332 -3.2760985
4.674095 6.5401106 -0.03852052 0.022928026 1.6382872 -2.1899345 -0.039159626 0.44629335
-0.00093155354 -0.005583732 0.031027649 1.4777824 -0.05723838 -0.05822241 -7.069617 -0.04224379
0.03507046 0.99343145 -0.029533563 -0.04111681 -0.076870054 0.017205264 0.021912228 1.0868812
0.061464645 -0.077520154 1.5124416 0.08150492 2.2406697 0.06565314 0.0033777414 1.9568244
-1.7952994 0.14829034 1.0184667 1.1000708 1.3676519 0.011009105 -0.034850817 -0.022678262
0.050093226 -0.09911417 -0.07065069 0.052391622 0.34101036 1.2110001 0.021243095 -0.0005452974
-0.044247687 0.035593018 -0.015347694 -0.02072547 -0.0020057657 1.774622 0.0042582043 -0.7009293
0.94260913 -0.040159028 0.88033026 8.497386 1.447581 1.0313346 0.9672216 -1.4640697
00000000: b8f1 e73c 33be 0740 8dcf e5bf ce06 20ba
00000010: 67bb 3c3f 5128 863d 4e6a c2bb 647d cdbc
00000020: 0cfc 1840 e4f7 edbc d6d8 c73c 6cbf da3f
00000030: c4d8 0a3f af8a 27bd b805 2bbd 34ba 523f
00000040: e343 3c3e f7f9 c53f fdf1 7a3d 121d bbba
00000050: 54af 773b a4f5 dd3f 11c9 4ebd 2fa0 8ebd
00000060: c5e5 56bd bb06 56bd 8fd8 983c f821 403e
00000070: 19b3 b73f 5997 1bbc a43d 9140 aca7 af3b
00000080: 08df 463f ff53 20bd 7630 07bd b42f fa3f
00000090: 72a3 b93f 8795 5dbd ccc3 fd3f 9290 b83f
000000a0: 8752 323f 2ddf cebf 7c9e 2d40 020e 483d
000000b0: 94b5 1c3f f9f0 3c3f 5586 b3bc 6eb3 3bc0
000000c0: 47bb 33bd 9116 9ebf 46dc 013d 38e7 b63f
000000d0: 5c5b b53f 085b f63f 3f71 cdbb 2538 c43c
000000e0: 2fb2 94bd 5b87 65bb e199 723f 3dd7 e2bb
000000f0: 9539 26bd 3851 f33f c289 493f a772 73c0
00000100: a1b0 ffc0 1f7b e9c0 d5ed 503c 1171 3b3c
00000110: ddbd eb3f 17b6 a43f 8ba5 b7bc e1de 6d40
00000120: a07a d73c d65c 09bc 7098 97bd c3c9 983e
00000130: f27e c23c a27c 493c 1a7a e13e 725d a535
00000140: a111 54bd 45a3 283f 4460 3b3d 69ad 48bc
00000150: 388a b13d 2cab efbb c012 0bbd 73ab 3e3f
00000160: 3c1f a63d d44f 963d f6b6 313f b283 6abb
00000170: 97ef 16be eb18 c1bc b9a3 bf3c a490 a9be
00000180: bfdf 04c1 633d 7abc 74a8 573f 6493 4d3f
00000190: 9fe6 8b3e 9dc5 1fbd 0cc7 df3b 9825 da3b
000001a0: c7b4 be3c c3ec 933c 2d6b db3c ab90 a5bc
000001b0: ebdd 0940 00dc 073f 5884 683c 4e39 873c
000001c0: c2b6 4b3c 3e2b 483c a552 b53c 1a99 a8bc
000001d0: dd01 49bd 0825 db3f 10ad 1f3d 1c45 c33f
000001e0: 2558 543f 9113 8b3d ca0d ecbf bbee 52c0
000001f0: 6f7d e83f 8500 2a3f 837d 0a3f 617e 0b40
00000200: 1139 94bd dd80 1ebe 24ad 603f 3913 78bd
00000210: 8edd 863f 79ee 4ebc d720 a73c 52ff 80bd
00000220: 0451 01c1 70cd b63b 5844 f03c 9454 c93f
00000230: 56bf 8f3f 7acd bc3b e6aa 83bc c0ef 8f3f
00000240: 2b11 b63f b46b d13e cf29 15bd c681 1cbc
00000250: 875e 3fbd 78d6 ca3f d4ec 15bd c47b b43b
00000260: 7d30 89bc 477b 54bb 075c e0bc 9ec6 4d40
00000270: 65f5 5b3f e046 46bd 5912 d7c0 dedf a3bd
00000280: 2a1f 803f 0ec0 59bd 7026 32bd 4a5f 1fbd
00000290: a56a d1bc f368 883d f88b c53f 7a5b 0240
000002a0: 76e8 8d3f 6ceb a23f f4b7 0ac1 7c3b 8b3b
000002b0: 19ac 893f 148b 8c3f 8bf0 7bbb a1ca d5c0
000002c0: 42f7 c43b a6bc 883f 979f 9cbc b9cd 0240
000002d0: add7 3f3f 7dbb 9a3f f23f 143d 7164 85bc
000002e0: 758c cb3f c668 8cbb d7d8 563f 0ead 983b
000002f0: 18a4 5dbc 9cb3 c7bf e1a2 8d3f 99ab 51c0
00000300: 3092 9540 9648 d140 b1c7 1dbd 8ed3 bb3c
00000310: 65b3 d13f e327 0cc0 d865 20bd 9080 e43e
00000320: 8033 74ba bdf7 b6bb b22d fe3c f927 bd3f
00000330: cb72 6abd 9f7a 6ebd 4d3a e2c0 d307 2dbd
00000340: 0ba6 0f3d 8651 7e3f 5ff0 f1bc 1a6a 28bd
00000350: 0c6e 9dbd 0ef2 8c3c 4681 b33c ec1e 8b3f
00000360: 5ac2 7b3d e3c2 9ebd b097 c13f 0dec a63d
00000370: 2267 0f40 2775 863d 195d 5d3b 3979 fa3f
00000380: 5fcc e5bf 6cd9 173e 1e5d 823f 1fcf 8c3f
00000390: 380f af3f 885f 343c bbbf 0ebd c3c7 b9bc
000003a0: 8e2e 4d3d 5ffc cabd 4fb1 90bd 9998 563d
000003b0: e998 ae3e 0d02 9b3f 0006 ae3c 4af2 0eba
000003c0: 103d 35bd fcc9 113d e574 7bbc 76c8 a9bc
000003d0: 2a73 03bb d026 e33f 6888 8b3b 1a70 33bf
000003e0: d54e 713f cb7d 24bd 535d 613f 4bf5 0741
000003f0: 564a b93f c602 843f d69b 773f a366 bbbf

fc3.bias f4 [2]
0.782844 0.5200491
00000000: 7768 483f f021 053f
