weights/dqn_curriculum_short_to_long.pth (torch, 72538 bytes, 6 tensors)

fc1.weight f4 [128, 4]
000000 69 2b 8d bd 12 d4 83 3d f3 fe d1 3f 64 9e f0 3e
       -0.068930455 0.064369336 1.6405929 0.46995842
000010 e6 8c f2 bd 56 92 0f bf 04 14 0b c1 c3 7d f6 bf
       -0.118432805 -0.56082666 -8.692387 -1.925713
000020 ef 2f 5f bd 47 60 37 3c 4e f8 ea 40 2d 50 81 40
       -0.054489072 0.011192388 7.3428106 4.041037
000030 1e 33 9e 3e ec cc 84 bd fb 17 39 bf b1 f9 6d be
       0.30898374 -0.06484398 -0.72302216 -0.23239781
000040 c8 45 11 bd b0 c2 3c 3c 9c 69 cf bf b9 d0 18 bc
       -0.03546694 0.0115210265 -1.6204104 -0.009327107
000050 32 9d b5 3d 73 9d 7a 3e 2d d8 36 40 b9 f4 0d 3f
       0.08867873 0.24474125 2.8569443 0.5545154
000060 0c 36 82 3e c9 12 43 bf df 51 49 c0 7b 79 3d bf
       0.2543186 -0.7620054 -3.145622 -0.7401349
000070 0a 41 18 3f d2 88 01 3c a3 e5 04 41 40 ff 99 40
       0.5947424 0.007906156 8.306064 4.8124084
000080 61 e6 24 be 0f d3 f2 bd b4 c1 c9 bf 88 79 c1 be
       -0.16103508 -0.118566625 -1.5762239 -0.37788033
000090 9c 02 24 bd 91 d7 e3 3d d9 9a 8f bf c2 3c b9 bd
       -0.04004155 0.111251004 -1.1219131 -0.09044792
0000a0 00 a2 80 bb 7d b3 2c be 8f 60 94 3e 81 6f a4 be
       -0.003925562 -0.16865344 0.28979918 -0.3211632
0000b0 4e 7e 33 3d 90 70 5f bd 47 3e 3c c0 09 c5 56 be
       0.043821625 -0.054550707 -2.941301 -0.209736
0000c0 96 6d 34 be 82 75 08 be 82 65 b6 bf 93 e8 ea be
       -0.17619929 -0.13326076 -1.4249728 -0.45880565
0000d0 d3 0a ae 3f 17 c8 83 be 49 79 9a c0 68 53 92 bf
       1.3597053 -0.25738594 -4.8273053 -1.1431704
0000e0 c1 24 8c be 87 2d e9 3e 60 3f c9 40 28 e0 14 40
       -0.2737179 0.45542547 6.288986 2.3261814
0000f0 16 b5 8c 3e b8 9c 95 be 14 e0 bc 3f fd 0a 9b be
       0.27481908 -0.2922113 1.4755883 -0.3028182
000100 b7 5b 8d be 1c 95 b7 3e c8 c3 12 40 31 66 82 3f
       -0.27609035 0.3585595 2.2931995 1.0187436
000110 92 55 66 3e 46 49 10 be 92 59 06 bc a2 f2 a4 be
       0.2249358 -0.14090452 -0.008200066 -0.32216364
000120 01 81 c4 3f 05 cd 69 be 42 00 6b c0 dc a9 b1 bf
       1.5351869 -0.22832115 -3.6718907 -1.3879962
000130 25 32 d5 bd 3a 87 8c 3d 27 b8 35 bf d1 2a ea 3d
       -0.10409955 0.0686173 -0.7098412 0.11433948
000140 b3 17 21 3d c4 41 4a 3d f0 e8 93 40 46 4f e8 3c
       0.039329242 0.049379125 4.6221848 0.028358113
000150 e6 96 bc 3c a6 57 0d 3d 4e d7 3e be 8a a2 7a 3c
       0.023021173 0.034507416 -0.1863682 0.015297541
000160 56 a6 9d bd d1 8b 9d be b1 67 7c bf 3f 40 60 bf
       -0.07697742 -0.30770734 -0.9859572 -0.8759803
000170 48 f9 80 3e e0 73 42 be 9c c2 87 bf a7 40 ad be
       0.25190187 -0.18989515 -1.0606265 -0.33838388
000180 f5 ab 8e be 49 57 ea bf 04 9e 86 3f 5e af 8b bf
       -0.27865568 -1.8307887 1.0516973 -1.0912893
000190 d8 03 14 3c c6 00 20 be d6 a0 97 3f 9e 94 d5 be
       0.00903412 -0.15625295 1.1845958 -0.41714948
0001a0 35 03 a8 3f 81 10 19 3e 10 02 40 c1 3e fc ab bf
       1.3125979 0.14947702 -12.000504 -1.3436353
0001b0 01 35 91 3d ad 55 b3 be 6c f6 ca bf 21 ca 35 bf
       0.07090188 -0.35026303 -1.5856452 -0.7101155
0001c0 a8 27 49 3b ec 99 37 3d b4 91 16 be 40 85 33 3d
       0.0030693803 0.044824526 -0.14704019 0.04382825
0001d0 6f f8 28 3e 98 f2 37 3f 17 f6 73 40 fe 26 07 40
       0.1650102 0.71854544 3.8118951 2.111755
0001e0 82 50 a9 3d 95 15 a9 bd cd 9b ee 3e 86 5a e9 bd
       0.08267309 -0.082560696 0.46603242 -0.11394219
0001f0 b3 8d b2 3f a2 f3 8a bf e0 67 8f 3e ee 7b 15 c0
       1.3949493 -1.0855601 0.28008938 -2.335689
000200 15 29 9e be 14 31 8f bd cd 93 55 40 5c af e5 3e
       -0.30890718 -0.06991783 3.337146 0.4486035
000210 91 4a 96 3f 4b b5 b1 3f 52 82 15 41 41 a4 6f 40
       1.1741506 1.3883451 9.3443165 3.7444003
000220 e1 14 e2 3a 5e 66 95 3b a8 f1 6b bf 9b 14 fd 3c
       0.0017248654 0.0045593223 -0.92165613 0.030893615
000230 0e bc 2d 3f b4 98 17 40 1d 77 2e 41 11 3e d9 40
       0.67865074 2.3686953 10.90408 6.7888265
000240 cf d2 f1 3d f4 65 55 be 2a d2 62 bf 4a b5 0d bf
       0.11807787 -0.20839673 -0.88601935 -0.5535475
000250 40 05 01 3d f6 d9 39 bd 94 23 a4 3d ea 41 76 bd
       0.031499147 -0.04537388 0.080145985 -0.060121454
000260 d1 fc e4 bf ae 7e 37 3f d3 d3 7f 40 ec 5a d3 40
       -1.7889653 0.7167767 3.9973037 6.604849
000270 f8 b9 33 be 02 b3 8c bd 12 14 f8 c0 9b 68 1d c0
       -0.1755141 -0.068700805 -7.75245 -2.4595096
000280 ed ba 25 be 12 a0 42 3e 20 06 08 3e 6d 69 8a 3e
       -0.16184588 0.19006374 0.13283587 0.27033558
000290 f7 cc 17 bf bd 86 ac bf 60 7c 4b c1 8c 62 7c c0
       -0.59297127 -1.3478619 -12.717865 -3.9435148
0002a0 d4 f8 97 bd e5 f9 12 3e 04 ee 26 3d 3f ae 1b 3e
       -0.07420507 0.1435314 0.040754333 0.15203188
0002b0 28 01 01 bd cd 89 f2 3d e4 62 0b bf 7a 33 24 3e
       -0.031495243 0.1184269 -0.5444777 0.16035262
0002c0 41 5c 9f 3d f7 30 e9 3d 37 91 74 40 c0 46 09 40
       0.07781268 0.113862924 3.8213632 2.1449432
0002d0 b1 b9 8c 3e b5 b6 cb 3d 08 32 4d 3f 5e 34 7a 3e
       0.2748542 0.09946958 0.80154467 0.24434039
0002e0 7a 13 66 be 4a 2a 2e 3e a4 b2 dc 3f 8c 8a d0 3e
       -0.22468367 0.1700832 1.7242017 0.40730703
0002f0 2d df 04 bf ba e5 43 bf 50 47 60 bf db 0e 87 bf
       -0.5190304 -0.7652241 -0.87608814 -1.0551409
000300 17 ea 77 3c 2a 58 b3 ba df e7 56 40 71 fc ff 3c
       0.015131495 -0.0013682891 3.3579023 0.031248303
000310 b6 38 a1 be c2 de a4 be 31 e3 47 40 21 b7 30 bf
       -0.3148858 -0.322012 3.1232417 -0.6902943
000320 88 1f f9 bf a6 15 56 be c4 83 c1 40 ce 47 9f 3f
       -1.9462748 -0.20906696 6.0473347 1.2443788
000330 eb 48 37 3c f8 7c 6f be aa 57 1c c0 af 00 2d bf
       0.011186819 -0.23387516 -2.4428506 -0.6757917
000340 05 c9 5f 3e e9 52 96 3d 05 a0 1f 3f 4b cb 96 3c
       0.21854027 0.073400326 0.62353545 0.018407485
000350 22 5a 27 bd 1d 6e 37 bf bb d0 68 c0 45 01 fc bf
       -0.04085744 -0.71652395 -3.63774 -1.9687887
000360 0e a9 e0 bd 3e 54 2f 3d 3c b5 5a bf b2 7a 4f bd
       -0.109697446 0.04280495 -0.8543279 -0.05065412
000370 58 ee be bb 92 63 1a be 00 8e ce bf c7 f2 e1 be
       -0.0058267526 -0.15077046 -1.6137085 -0.44130537
000380 0d bc ab ba 89 14 17 bd 18 6b 0f bf 86 12 fe bd
       -0.0013102308 -0.03688482 -0.5602279 -0.12405877
000390 41 ae 39 bd 0f d8 07 3f ae ee ec 3f 17 16 0e 3f
       -0.045332197 0.53064054 1.8510339 0.55502456
0003a0 fb c7 24 3f d9 a8 2d 3f 0c 2e dc 40 7f a2 5a 40
       0.64367646 0.67835766 6.880621 3.416168
0003b0 53 17 4f be d0 76 d2 bf e1 ec 15 c1 b3 47 a8 c0
       -0.20223741 -1.6442509 -9.370332 -5.2587523
0003c0 43 23 86 be 2e 55 10 bf 8c 63 ca 40 01 c8 95 3f
       -0.26198778 -0.56379974 6.3246517 1.1701661
0003d0 05 c7 da 3d 85 54 ea be ab c7 08 c0 c1 9e 7d bf
       0.10682491 -0.45767608 -2.1371868 -0.99070364
0003e0 52 a5 2f 3d 43 db 2d be 32 f3 95 bf 1f d2 b7 be
       0.04288227 -0.16978173 -1.1714842 -0.35902497
0003f0 91 bd f6 bc 24 5f e0 3d 38 68 74 3e d1 1d 47 3e
       -0.03011969 0.10955647 0.23867881 0.19444968

fc1.bias f4 [128]
000000 d0 a9 ba bf d0 3a a1 3f 45 2a d6 bf b5 d7 7e bf
       -1.4583073 1.2596073 -1.673165 -0.9954789
000010 90 bd 12 bf a8 a6 f8 bf 57 4b b3 40 85 74 f5 bf
       -0.573205 -1.942586 5.6029468 -1.9176184
000020 cf c1 b8 bf 0b 5a 85 bf 99 8c 29 bf fa 39 81 bf
       -1.4434146 -1.0418104 -0.6623016 -1.0095818
000030 5a 10 ba bf 08 75 d1 bf 87 cc df bf 20 ed a9 bf
       -1.453624 -1.636384 -1.7484292 -1.327549
000040 36 89 09 c0 f2 7b 51 bf 5e 6a ca 3f ff 91 bd be
       -2.1489997 -0.8182975 1.5813711 -0.3702545
000050 bb 2d 9f bf f4 80 9c be fd 54 f4 bf d5 1a 8d bf
       -1.2435831 -0.30567133 -1.9088436 -1.1023813
000060 f5 42 66 3d dd 53 62 bf 3d e0 0d c0 2c 65 d9 bf
       0.0562162 -0.88409215 -2.2168114 -1.6984
000070 c6 c5 a1 be 93 8c d1 3d 75 bf a3 be 04 c7 e4 3e
       -0.31596202 0.102318905 -0.31982008 0.44683087
000080 24 08 0c c0 12 ee 6e 3e 5e bf 7d be f0 8e 44 be
       -2.1879969 0.23333004 -0.24780032 -0.19195151
000090 07 f9 85 bf a6 af 41 be 60 e7 59 bf 9b af 99 bf
       -1.0466622 -0.18914661 -0.85118675 -1.2006716
0000a0 9f 3b 53 bf 1a 1a 4c bf 7b 3f 0b bf 56 bb 06 bf
       -0.8251285 -0.7972733 -0.5439374 -0.526296
0000b0 23 70 84 3f 70 d6 ad bf 9e 72 b3 bf ee 83 84 3e
       1.0346721 -1.3581066 -1.4019353 0.25881904
0000c0 66 e5 61 bf 3f dc f9 bf 6c bb 13 c0 1f 3c d7 bf
       -0.8824066 -1.9520339 -2.3083143 -1.6815223
0000d0 2a bc 89 bf dd c1 6f 40 b7 65 0a bf 6a 61 8c bf
       -1.0760548 3.7462075 -0.54061455 -1.0967228
0000e0 1f 76 d6 be 8e a8 1c c0 6a 96 f8 bf a8 19 c5 bf
       -0.41886994 -2.4477878 -1.9420903 -1.5398455
0000f0 b8 ec e5 bf b3 3d f7 bf 82 75 80 bf 47 8d f7 be
       -1.7962866 -1.9315704 -1.003586 -0.48349974
000100 b0 5c 42 be 2c 1d 9b bf c4 01 b4 bf 24 7d 24 3c
       -0.1898067 -1.2118278 -1.4063039 0.0100396015
000110 e3 fd c1 be 8f cd ed bf 5f b8 b8 bf 54 32 bf bf
       -0.37889013 -1.8578357 -1.4431266 -1.4937234
000120 09 70 fb be 04 cb 86 be 29 13 4f bf 14 14 08 bf
       -0.49108914 -0.26326764 -0.8088861 -0.53155637
000130 66 75 28 c0 94 b4 4d be f1 05 0f bf 52 1b b9 bf
       -2.6321654 -0.20088416 -0.5586844 -1.4461462
000140 04 4b 64 bf e1 1d fe bf 78 09 07 bf 12 56 5c bf
       -0.89176965 -1.9852868 -0.52748823 -0.8606883
000150 7b 53 13 bf 9f 72 ad bf 55 c3 ec be 68 22 ad bf
       -0.57549256 -1.3550605 -0.46242777 -1.3526125
000160 45 56 85 bf ad 04 2a 3f aa 1c d2 3f ed 81 12 c0
       -1.0416952 0.66413385 1.6414998 -2.28918
000170 be 5a 5f bf 03 1c 23 bf 6e 31 8d bf 88 3e b7 bd
       -0.87247837 -0.6371462 -1.103071 -0.08947474
000180 1e 15 36 3f f5 c5 bb bf 55 ea f1 bf 0b 89 fc bf
       0.7112597 -1.4669787 -1.8899637 -1.9729322
000190 89 fb 55 bf 00 68 6f bf d6 ad a6 bf da e7 c8 bd
       -0.8358694 -0.93518066 -1.30218 -0.09809847
0001a0 91 7d 19 c0 26 8d 21 bf 48 86 2e c0 67 68 f1 40
       -2.398289 -0.63106 -2.7269459 7.5439944
0001b0 68 b2 cd bf 84 fa 9a be 3b 37 69 3f 45 67 82 bf
       -1.607007 -0.30269253 0.910999 -1.0187765
0001c0 2c 13 3d bf 7a 7e 1a bf 40 44 a3 3f 25 96 28 bf
       -0.7385738 -0.6034924 1.2755203 -0.658541
0001d0 9c f7 5a be 7f de 81 bf 5d e0 2c bf 43 10 15 40
       -0.21383518 -1.0146025 -0.6752985 2.3291175
0001e0 45 30 11 c0 7c 2b 56 40 f0 ab 34 3e c6 31 9f be
       -2.2685711 3.346404 0.17643714 -0.31092662
0001f0 c2 c8 49 40 99 0c ad 40 64 be bb bf 45 5b 85 40
       3.1528783 5.407788 -1.4667478 4.1673913

fc2.weight f4 [128, 128]
000000 20 78 06 be 1e a0 c5 c0 0d cf 9b c0 8f 20 1b 3e
       -0.13131762 -6.1757956 -4.8690248 0.15149139
000010 b3 97 45 3e d8 ad 17 c0 c1 36 97 3f e8 24 03 c1
       0.1929615 -2.3699856 1.1813585 -8.19651
000020 c1 c0 ad c0 44 44 4b be f2 e0 f8 3d 8e 18 44 3f
       -5.4297795 -0.1985026 0.1215228 0.7659997
000030 b1 6e a6 bb e5 3f bc c0 0f ea 05 c0 2c ac 10 3f
       -0.0050791134 -5.8827996 -2.0924108 0.56512713
000040 29 75 a8 bf c2 88 31 3f c2 ef 98 c0 10 13 8b 3d
       -1.3160754 0.693493 -4.7792673 0.06790745
000050 aa d8 cc 3e 01 cd c3 be 7d ab 78 3f b3 fd 2f 3f
       0.40009052 -0.38242343 0.9713667 0.6874649
000060 83 7b 1e c0 04 d3 2f bf 25 e0 dc bf c4 89 11 bf
       -2.4762886 -0.6868136 -1.7255903 -0.5685084
000070 d6 34 a2 be ee 7f a0 c1 1e 36 a0 3d 17 76 b4 3f
       -0.31680936 -20.062466 0.07822822 1.4098538
000080 cf d8 48 c0 8f d5 1e 40 27 c3 4f bf b7 93 62 be
       -3.138233 2.4817846 -0.81157154 -0.22126661
000090 a8 0f 16 bf 3a 5b a2 3a 55 a9 99 40 28 00 57 c1
       -0.5861764 0.0012386807 4.8019204 -13.437538
0000a0 a5 c3 3c 3d d0 7a 12 c1 30 e2 a1 be 45 ff bf 3d
       0.04608502 -9.1549835 -0.3161788 0.09374861
0000b0 cf 7e 3d c1 22 cb ac c0 da 73 fc be 26 7e 44 c0
       -11.843459 -5.3997965 -0.49307138 -3.0701995
0000c0 25 a0 93 c0 5b 47 71 3f 05 41 0f c1 91 6c 50 bf
       -4.613299 0.94249505 -8.953374 -0.8141566
0000d0 b2 95 39 c0 69 79 04 40 73 eb 78 bd 1a 54 5d 3d
       -2.8997617 2.0699103 -0.060771417 0.054035284
0000e0 75 29 8a 3e 4f 74 12 c0 c0 04 30 3f c5 4f 09 41
       0.26984754 -2.288349 0.6875725 8.581975
0000f0 e6 07 b6 c0 67 cf 84 bf 3f e0 4f be a6 e4 9b 3c
       -5.688464 -1.0375794 -0.20300387 0.019029927
000100 97 27 8e 3d bf 98 2d 3f 5b f7 bc c0 c3 00 2a 40
       0.06941145 0.678112 -5.9051948 2.6562965
000110 9e ba 1c 3d 30 87 c3 3d b4 d9 28 bf e1 62 93 c0
       0.03826391 0.09547269 -0.6595719 -4.60582
000120 dc eb 0a bd 53 12 52 3e af eb b5 3e 77 00 c4 bd
       -0.03391634 0.20514803 0.35531375 -0.09570401
000130 4b 4c 37 c0 47 f0 59 bd 53 8f 03 3d 2d 94 28 c0
       -2.8640316 -0.053207662 0.032119107 -2.634044
000140 88 09 2b 3e 33 f0 af be 9d 84 2d 3e a6 3f 42 3e
       0.16702855 -0.34362945 0.16945119 0.18969592
000150 14 28 0c bf 03 55 47 40 7c 22 8b 40 54 b8 6e bd
       -0.54748654 3.1145637 4.3479595 -0.058281258
000160 fa 69 b4 bb 45 34 fa be 63 f9 d2 3f e8 9d a9 c0
       -0.0055057975 -0.48868003 1.6482357 -5.3005257
000170 e0 03 23 c0 8f 79 85 3d 05 b8 e4 bf 15 e6 3a 3d
       -2.5471115 0.06517326 -1.7868658 0.04562958
000180 ab 32 f8 c0 93 d3 c0 3f b7 99 12 bf 29 26 f4 bf
       -7.756185 1.5064567 -0.572658 -1.9074146
000190 b7 69 26 c1 b4 6c fe bf 29 b2 92 3f f6 26 1d 3e
       -10.400809 -1.9876924 1.146062 0.15346894
0001a0 79 ce 28 c0 bd 25 a0 be 93 e6 43 c1 5c 0f fd 3f
       -2.637602 -0.31278792 -12.243793 1.9770312
0001b0 a0 de 81 3e 86 1b 08 3c 60 fc 30 c0 3d 89 4c c0
       0.25365162 0.008307343 -2.7654037 -3.1958764
0001c0 d1 5e 98 be 57 9f 31 3e 52 3e 0a c0 84 77 3e be
       -0.2975984 0.1734594 -2.1600537 -0.18600279
0001d0 9f 10 b0 bf aa cd 06 be e5 37 8e 3e 07 d3 02 3f
       -1.3755072 -0.13164392 0.2777702 0.5110325
0001e0 d4 3a af 3f 25 30 a3 3f 2f 88 0d 40 6a 3b 0f c1
       1.3689828 1.2749068 2.211437 -8.952005
0001f0 eb 3e 5e 40 86 32 69 40 db 68 bd c0 d9 eb dd 3f
       3.4725902 3.6437087 -5.9190497 1.73376
000200 ee b2 58 3e dc d9 38 bf b9 81 31 40 a9 09 f3 3e
       0.21162006 -0.7220743 2.7735426 0.47468308
000210 6a 90 ea bd cb 40 b7 bf 00 c3 1d 40 61 a6 ba c0
       -0.11453326 -1.4316648 2.4650269 -5.83281
000220 29 c2 40 c0 8e c3 86 3d 29 57 54 bc 58 33 31 bf
       -3.0118506 0.06580268 -0.012960234 -0.6921897
000230 ed ff d2 bf 97 bb ce c0 7f b5 f8 bf f6 ff 2a 3f
       -1.6484352 -6.460399 -1.9430388 0.66796815
000240 0c d4 a1 bf 8d 55 36 3e d2 bf d2 bf b3 c5 99 bd
       -1.2642837 0.17806073 -1.6464789 -0.07508411
000250 cd 5c 95 c0 ae 9a f7 bd d1 d5 d3 bf 9d 59 d5 bd
       -4.667578 -0.1209005 -1.6549627 -0.10417483
000260 6c b1 e7 bf a8 84 a3 3c a4 7d 18 40 6a ee 00 c0
       -1.810102 0.019960716 2.3826685 -2.0145516
000270 64 c9 3d be 8a d4 46 bf 88 f8 0d be c6 16 b5 c0
       -0.18533856 -0.7766806 -0.13864338 -5.65903
000280 d0 7c 2a c0 e3 19 1d 40 9f 09 e0 3d ec d2 ba be
       -2.663868 2.454705 0.10939335 -0.36489046
000290 e3 ce 76 3f c1 d3 0a be 8a 49 86 3f 64 40 07 c0
       0.96409434 -0.1355734 1.0491192 -2.113305
0002a0 ae e4 90 3e 91 81 60 c0 a1 b7 a1 be e0 64 53 bd
       0.2829947 -3.507908 -0.3158541 -0.051609874
0002b0 49 22 9b c0 37 10 9c c0 85 fe 23 bf 9e 02 ab c0
       -4.847935 -4.8769794 -0.6406024 -5.3440695
0002c0 13 32 92 c0 c3 41 b9 3f fa 65 59 c0 da 6a 2d c0
       -4.5686126 1.4473194 -3.3968492 -2.7096467
0002d0 8e 71 3c c0 6c b3 ba 40 6a 92 ca 3d d8 88 94 be
       -2.9444308 5.834402 0.098912075 -0.29010653
0002e0 f1 38 15 3d aa 22 22 c0 9c 9c 2e c1 f7 cb a0 c1
       0.036431257 -2.5333657 -10.913235 -20.099592
0002f0 7d 04 1f 3f 30 86 01 bf 0e 55 1a bf e0 56 af bd
       0.62116224 -0.5059538 -0.60286033 -0.08561492
000300 3f d4 26 3d 3f a9 8f bf 40 fc 81 bf 97 e7 d5 3f
       0.040729757 -1.1223525 -1.0155106 1.6711301
000310 1a ee 52 be 6a d3 11 be 44 09 50 3f 29 12 ab c0
       -0.20598641 -0.14240804 0.8126414 -5.345967
000320 5f 23 a6 3c 9e ad 79 bd 40 e4 62 be fe 62 77 bd
       0.020280538 -0.06095659 -0.22157383 -0.06039714
000330 ad 67 53 3d 00 3c 5a 3d b0 52 46 bc 30 03 9d c0
       0.051612545 0.053279877 -0.012104675 -4.906639
000340 d4 90 99 bf d6 9f 97 bf bc 93 2b 3e 74 24 3a be
       -1.1997323 -1.1845653 0.16755575 -0.18177968
000350 aa c0 3a 3e 5b 6e fb be 9c 8d 25 40 06 c2 8b bd
       0.18237558 -0.49107632 2.5867682 -0.068241164
000360 ea 30 10 bd a8 5e 77 be fd 05 64 40 88 9d 9e c0
       -0.035202898 -0.24157202 3.5628655 -4.95673
000370 67 39 1d c0 15 bf 88 3c fe 3b ce bf 4f 6d e7 bd
       -2.4566286 0.016692678 -1.6112058 -0.11300146
000380 35 af 4b c1 f2 ce fa 3e be 5d 6b c0 46 8d 04 bf
       -12.730275 0.48986012 -3.6775966 -0.51778066
000390 ce a9 27 c1 8e 65 34 c0 1e cf 10 be ee f3 31 bd
       -10.478956 -2.8186984 -0.14141509 -0.04344552
0003a0 a9 d4 97 3f 42 bb 93 3d 0d 09 df c0 89 c7 c5 3f
       1.1861774 0.07213451 -6.969855 1.5451518
0003b0 3f 74 9d bd 26 2f 8e bd 95 28 80 c0 62 f3 60 c0
       -0.07688188 -0.069425866 -4.004954 -3.514855
0003c0 3c ce 39 40 c5 08 3f 3c bd b6 16 c0 49 1b 2d be
       2.9032125 0.011659806 -2.3549035 -0.1690494
0003d0 f1 db 07 c1 ee 94 d0 3e 52 aa 8b be 1e 50 33 c0
       -8.491197 0.40738624 -0.27278382 -2.801765
0003e0 73 de f1 bf f9 56 d1 3f 4f 2f fb bf b9 f5 11 c1
       -1.8896011 1.6354667 -1.9623812 -9.122491
0003f0 a8 eb d7 3f 25 e9 dd bf b6 1e a9 c0 cd 7c ce 3f
       1.6868792 -1.7336775 -5.284999 1.6131836

fc2.bias f4 [128]
000000 d9 a4 9b 40 4d cd 70 40 56 e4 22 be 64 f9 09 bd
       4.863873 3.7625306 -0.15907416 -0.033685103
000010 c8 5a ca bd 80 ea 87 40 e1 ab 6a 3f 1d 24 0f c0
       -0.098805964 4.2473755 0.91668516 -2.2365792
000020 36 e5 f9 3e e2 24 df 3f df 45 52 40 19 ac d8 bc
       0.48807687 1.7433131 3.2855146 -0.02644925
000030 3c ed a8 bd c3 0f f8 3f 95 b6 82 40 af 59 c8 bd
       -0.08248374 1.937981 4.084788 -0.09782731
000040 46 2a e1 bd 1d 1c 85 bd 7f 41 1f be 21 93 31 40
       -0.10994391 -0.06499503 -0.15552329 2.774605
000050 1a c3 3c 3f 53 13 ff bd 63 24 96 3f b6 e4 63 40
       0.737352 -0.12454858 1.1729854 3.5608344
000060 f4 84 46 c0 6e 35 16 3f 1d 06 89 3f b4 e7 24 40
       -3.1018648 0.5867528 1.0704991 2.576642
000070 03 db a5 40 3b 45 8b 3f 31 14 81 bd a4 7b 6a be
       5.182985 1.0880502 -0.06302679 -0.22898728
000080 79 f9 bd 3f d7 a6 50 bd b6 05 cf 3f 92 e7 1d be
       1.4841758 -0.05094036 1.6173618 -0.15420368
000090 9c e9 11 be 54 33 9a 40 d0 e2 9a 40 00 3f 94 40
       -0.14249271 4.8187656 4.840187 4.6326904
0000a0 bf f2 56 bd fa a9 89 bd ae 30 8b 3f 4d 3a 03 40
       -0.052477594 -0.067218736 1.0874231 2.0504334
0000b0 a5 b5 5e 40 b5 eb 07 be ff 98 70 bf 6f bc 8b bd
       3.4798367 -0.13273509 -0.93983454 -0.0682305
0000c0 c9 56 44 bd 78 ea 8e 3c fd 58 83 bd 45 1c bb 40
       -0.047934327 0.017445788 -0.064134575 5.847201
0000d0 39 e2 1e be 9a ab 1c 40 e2 9a f9 3f d6 de bb 40
       -0.15515985 2.4479737 1.9500391 5.8709517
0000e0 1a 65 5e 3f 1a da de 3f d2 85 1a 3f 8d 7d c5 bd
       0.8687302 1.7410309 0.60360444 -0.096430875
0000f0 58 3f b7 3e f9 1e d2 3f a4 4c 2c 40 24 f6 51 bc
       0.35790515 1.6415702 2.6921778 -0.012815032
000100 a9 5f 1c be ee cf a6 40 27 a7 75 40 26 1f ac bd
       -0.15270866 5.212882 3.8383272 -0.084043786
000110 eb 0d b1 3f 1c 57 65 bd bc 6a 3e 40 47 f4 7d 40
       1.3832372 -0.055991277 2.9752645 3.9680345
000120 ca 51 9a 40 34 60 6e 3f 48 a3 0c be f3 fa 2b be
       4.822484 0.93115544 -0.13734162 -0.16794948
000130 ad 30 3d 40 a6 40 2e 3f d9 f8 2a 3f cd 57 9a 40
       2.956096 0.68067396 0.6678596 4.823218
000140 5d 4e 0f bd ac 80 bc bd ae 96 80 3f 7e fa 33 c0
       -0.034986842 -0.0920423 1.0045984 -2.8121638
000150 83 c4 95 40 fe 8f 0d 40 b2 e5 6c be 23 5a 69 40
       4.6802382 2.2119136 -0.23134497 3.6461265
000160 fa e8 47 be 1e 11 eb bd 0a 11 22 40 4c 6f 23 be
       -0.19522467 -0.11477874 2.53229 -0.15960425
000170 91 bd 26 bd 7d df 46 bd 3a 5d 7e bc 34 59 ac 3f
       -0.04070813 -0.04855298 -0.015525157 1.3464723
000180 58 5f 2e be 5e e9 0a be 80 d9 30 3d 17 3e 3c bd
       -0.17028558 -0.13565585 0.043176174 -0.04595765
000190 ee c9 32 bc a8 9c cd 3f 97 42 4d 40 f7 88 43 3d
       -0.010912402 1.6063433 3.2071893 0.04773804
0001a0 67 3d 43 bd 50 1c ae 40 05 d7 27 40 81 c1 3d bf
       -0.04766598 5.440956 2.6224988 -0.7412339
0001b0 d6 5c 18 40 f5 6d 06 be 2a ec 08 be 4a d6 28 40
       2.3806663 -0.13127883 -0.1337134 2.6380792
0001c0 35 a5 3f 3c 13 93 09 bc 6d cd 30 bf a5 51 69 be
       0.011697103 -0.008396882 -0.69063455 -0.22785051
0001d0 eb 48 32 bd 57 d5 6d 3f e0 fc ee bd ce b1 e7 3f
       -0.04352657 0.92903656 -0.11669326 1.8101137
0001e0 0c 23 13 be 79 26 88 bd 20 ad 23 bb 87 d4 5b 40
       -0.14368838 -0.06647963 -0.0024975017 3.4348466
0001f0 7f 22 08 40 eb a4 12 be 20 67 4b bd 9c 6f 29 be
       2.1271055 -0.14320724 -0.049658895 -0.16546482

fc3.weight f4 [2, 128]
000000 3e a5 58 41 22 4c 5e 41 8f 46 a8 bb 11 5d a4 3c
       13.540342 13.893587 -0.0051353644 0.020063909
000010 fb 54 c0 bc 0b 37 df 3f 36 10 1b c0 ad 4a 29 c1
       -0.023478022 1.7438673 -2.4228644 -10.580731
000020 7b 89 7e c1 e7 85 f7 c0 83 9d 6d c1 09 fc e5 3c
       -15.908565 -7.7350955 -14.850955 0.028074281
000030 5d a3 a5 bc 32 58 30 40 be 4f 0c 41 83 0f 8d 3c
       -0.0202195 2.755383 8.769468 0.01721931
000040 cc ec 65 bd 0f 55 5d bd 3c be cf 3c 57 92 54 41
       -0.05613403 -0.054036196 0.025359266 13.2857275
000050 67 3a 35 40 35 05 d1 3b 3b 9e 19 41 2f ec 2c 41
       2.8316896 0.0063787946 9.6011305 10.807662
000060 6d 90 95 40 ec 90 0d 41 e6 52 8e 40 05 84 07 c1
       4.67388 8.847881 4.4476194 -8.469731
000070 3f 19 fc 3f b6 ca 39 c0 3f b0 cc 3c 40 2e a9 c0
       1.9695204 -2.9029975 0.024986384 -5.2868958
000080 45 3e 6f 40 e5 f8 68 bd b2 6d d0 40 e4 31 44 bd
       3.7381756 -0.05687799 6.5133905 -0.047899142
000090 bd ae 89 bc f8 7d 36 41 8b 9b cd 40 67 21 32 41
       -0.016806955 11.405754 6.425237 11.133155
0000a0 35 00 8b 3c d6 0e af bd 66 ed d8 40 a9 00 56 41
       0.016967872 -0.085477516 6.7789793 13.375161
0000b0 fc 6f 46 41 cd 9c 2a bc 63 77 1d c1 a6 a0 91 bd
       12.40234 -0.010413361 -9.841647 -0.071107194
0000c0 d6 aa a7 40 71 4f a8 40 01 30 83 3c 39 67 32 41
       5.239604 5.2596974 0.016014101 11.150201
0000d0 ce e7 02 bd c5 9d 19 c1 59 a1 8e c0 a2 a1 ee 3f
       -0.031959347 -9.601018 -4.4571958 1.8643076
0000e0 34 bb c3 40 f3 a6 d8 c0 7e 48 18 41 9f 12 a1 bc
       6.116602 -6.7703795 9.517698 -0.0196622
0000f0 83 7c 10 c0 c6 6d c0 bd f5 23 e9 40 58 41 6b b8
       -2.2575996 -0.093959376 7.2856393 -5.6089222e-05
000100 77 58 20 3b 78 bf de 40 a8 0c 26 41 48 78 6a bc
       0.0024466792 6.9608727 10.37809 -0.014310904
000110 57 8a 12 40 5b 2b 0a bd 4b ad 91 41 49 ed 29 c0
       2.2896936 -0.033732753 18.209616 -2.6551077
000120 99 3b 00 c1 5f fa 8d c0 f5 ec fc bc 8f 79 b2 ba
       -8.01455 -4.436813 -0.030874709 -0.001361655
000130 ae 0d f2 40 74 a5 64 c0 2e 7b 2d 41 a4 f9 0d 41
       7.56417 -3.5725985 10.842573 8.873447
000140 f0 ff e9 bc 36 16 a0 bd 69 aa 9c 40 2e 89 10 c1
       -0.028564423 -0.078167364 4.895802 -9.033491
000150 77 61 0c 41 b1 a3 1a 41 69 80 9a c0 fa 7a 6f 41
       8.773795 9.664964 -4.828175 14.967524
000160 2b f5 eb 3b a4 61 e7 3b d1 41 57 41 8b f9 a8 bc
       0.007200857 0.0070612 13.453568 -0.020626804
000170 41 fa 8c bd 53 09 9d bc 0b 60 72 bc 97 21 58 40
       -0.0688367 -0.019169485 -0.014793406 3.3770502
000180 ea 0c 46 bd db 61 21 bb a8 1f 4e bd d2 9a 3c 3a
       -0.04835216 -0.0024624977 -0.05032316 0.0007194701
000190 1a 85 34 3c 7e 25 fd 40 ed 01 e7 c0 06 6e 09 c0
       0.011018062 7.9108267 -7.218985 -2.1473403
0001a0 73 42 35 3d ab 41 7c 41 84 f1 23 41 41 4c b7 c0
       0.044252824 15.766032 10.246464 -5.7280583
0001b0 dc 32 b2 40 66 64 b2 3c da 34 85 bc 88 a6 83 41
       5.5687084 0.02177639 -0.016260553 16.456314
0001c0 8a 79 06 3d e7 b7 50 3c 25 1c 0b c1 a1 5b 2d be
       0.032830752 0.012739158 -8.694371 -0.16929485
0001d0 4b 90 7c bc ed 11 ab c0 47 99 6d bb 4d 84 d1 40
       -0.0154152615 -5.345938 -0.003625469 6.5474
0001e0 f7 ff 01 bc 1e 7e bf bc 5e e4 fc 3c dd ef 9f 3f
       -0.007934562 -0.023375567 0.030870613 1.2495075
0001f0 c8 cb c1 c0 52 fc 1a 3d 4d 99 0d bd 7e 8e 97 3c
       -6.0561256 0.037838288 -0.034570027 0.018500563
000200 e2 e8 c2 40 3f 2e 3e 41 17 8c 9d bd dc 1b 29 3c
       6.090928 11.886291 -0.07692736 0.010321584
000210 62 ac e8 bc 0c 03 3f 41 06 46 12 41 d4 ad 40 c0
       -0.028402511 11.938244 9.142096 -3.0106096
000220 bf fe 2c c1 ec 8c a5 c0 b0 ac 7a c1 30 3a 07 bb
       -10.812194 -5.1734524 -15.66716 -0.0020634048
000230 0f c3 86 bc aa da 11 41 9f cc 28 41 25 30 5a 3c
       -0.016450433 9.115885 10.549956 0.013317143
000240 c0 aa f5 3c 51 c5 9b bc f8 50 03 3d 9a b2 ce 40
       0.029988647 -0.019014986 0.03205964 6.459302
000250 ea 67 80 40 96 32 6f 3b d8 62 8e 40 1c fe 48 41
       4.012685 0.0036498657 4.449566 12.562038
000260 a4 35 b5 c1 77 ec d6 40 8b 4f 47 40 04 bb 28 c1
       -22.651192 6.7163653 3.11423 -10.545658
000270 e3 d2 12 c1 46 5c 96 c1 bb d5 f2 3a 3d b0 cd c0
       -9.176486 -18.795055 0.0018526831 -6.4277635
000280 bd 06 98 40 f4 6f 1b 3d 9c d4 88 c0 c7 83 03 3e
       4.7508225 0.037948564 -4.2759533 0.12843238
000290 27 b0 d2 3c 07 85 1f 41 cd 1c 2f 41 de e6 d7 40
       0.025718762 9.969977 10.944531 6.746932
0002a0 fe a4 a9 bc 37 49 08 3c 1c e3 e5 40 a9 45 05 41
       -0.020708557 0.008318237 7.1839733 8.329507
0002b0 c4 07 5a 41 77 af 07 bd 06 34 30 c0 20 20 a6 bb
       13.626896 -0.03312632 -2.7531753 -0.0050697476
0002c0 8c a1 da 40 81 10 0a 40 1d ef 82 bd 6c aa 36 41
       6.83222 2.1572573 -0.063932635 11.416607
0002d0 83 d4 26 bc f0 9e 90 c0 84 fe 0b 41 1b df 2d 41
       -0.010182503 -4.5194016 8.749638 10.866969
0002e0 b2 33 40 41 c5 c9 f6 c0 2d 0f 1b c0 49 74 e2 bb
       12.012621 -7.71213 -2.4228013 -0.006910835
0002f0 44 3e 85 c0 8e 72 f4 c0 f8 19 84 40 99 ef c6 3c
       -4.163851 -7.6389837 4.12817 0.024284171
000300 ef f4 33 bc d2 5b 4d 41 ed f3 21 41 79 f2 66 3d
       -0.01098369 12.834917 10.122052 0.056383584
000310 5c e8 ae 40 6b 52 ea bc 67 b0 89 3f 87 99 a3 3f
       5.465864 -0.028603753 1.0756959 1.2781228
000320 7c 83 28 c1 10 6c 6a 40 9c a6 81 bd 14 87 5f bc
       -10.532101 3.6628456 -0.06330606 -0.013643045
000330 7c 50 2e 41 e1 1c 98 c0 55 d4 59 41 32 f4 e6 40
       10.8946495 -4.7535253 13.614339 7.217309
000340 f9 b1 88 3c ae 7d 0e bc bb 59 a3 bf fc 61 b0 c0
       0.016686426 -0.008696957 -1.2761759 -5.511961
000350 2c 05 11 41 36 f9 d7 40 2f 6d a9 bf 39 fd 86 41
       9.063763 6.7491713 -1.3236445 16.873644
000360 ae dc fe 3d 57 a1 b7 bd 2f de 4a 41 45 f2 ed bc
       0.12444435 -0.0896632 12.679244 -0.029046187
000370 b2 40 a9 3b 59 37 91 bd 6a df e7 bc ae 73 fe 40
       0.005165183 -0.07090635 -0.028304774 7.951621
000380 03 16 98 bc 1c d0 92 bb f6 04 21 3c 58 c4 c0 b8
       -0.018565184 -0.004480375 0.009827843 -9.191845e-05
000390 54 63 cf bc 42 29 e9 40 ec 6b b6 c0 97 49 7d c0
       -0.025315918 7.2862864 -5.700674 -3.9576166
0003a0 db dd c4 3c bc eb 55 41 48 be 0e 41 16 88 2d c0
       0.02403157 13.370052 8.921455 -2.711431
0003b0 e1 fe 14 41 4f cc ad 3d d2 c0 39 3d 4a 7b 45 41
       9.312226 0.084862344 0.045349903 12.3426
0003c0 04 51 21 bd 7c 1d 28 3c 67 29 96 be 1f 38 8b 41
       -0.039383903 0.010260936 -0.29328462 17.402403
0003d0 e4 1e 7f 3d c8 73 84 bf 33 63 b2 bd ed b3 c4 40
       0.06228532 -1.0347834 -0.08710327 6.1469636
0003e0 74 f9 2d bc d1 b5 10 bd 14 49 56 3d 35 48 b8 c0
       -0.010618556 -0.035329644 0.052315786 -5.7588143
0003f0 3c cb ac c0 26 1d 46 bd b4 21 0b bd 7d 51 41 bd
       -5.399809 -0.048367642 -0.03396769 -0.047196854

fc3.bias f4 [2]
000000 a5 a4 12 40 35 82 94 40
       2.291299 4.6408944
