Random/weights/dqn_curriculum_random.pth (torch, 72404 bytes, 6 tensors)

fc1.weight f4 [128, 4]
000000 71 2b f0 3e 23 45 ea 3e e1 82 9b 3f 7b 89 e0 3e
       0.46908143 0.45755872 1.2149316 0.4385489
000010 c1 f3 e7 3e e3 f0 d1 be 9e 6b 34 c0 1a e0 3a be
       0.45303157 -0.41004094 -2.8190684 -0.1824955
000020 2e 57 26 3e 4d 5c 7a 3e 4e ea 10 c0 75 8f a1 3e
       0.16244194 0.24449272 -2.2643008 0.31554762
000030 5e 55 13 3f 81 05 ed 3e 0b f5 c0 bf 0b 15 ab be
       0.57552135 0.46293262 -1.5074781 -0.33414492
000040 7f bd 1a be 34 62 5a bf 12 d4 8f bf 63 8b 11 bf
       -0.1511135 -0.85306096 -1.1236594 -0.5685331
000050 7e 7e 81 3e 7f f6 09 bc 7b 35 80 bf f9 a5 33 bf
       0.25291818 -0.008420586 -1.0016321 -0.7017513
000060 55 63 fb be c8 52 8f 3e d7 33 6b bf d2 0b 77 3f
       -0.49099222 0.27992845 -0.91875976 0.9650241
000070 7c d6 bb bd a3 b7 c8 3e 73 1f ac bf ac 53 8a 3f
       -0.09171769 0.39202604 -1.3447098 1.0806785
000080 f9 3e 08 3e 00 f5 90 3e 5c 29 d2 3f 8f 52 fa 3d
       0.13305272 0.2831192 1.6418872 0.12222778
000090 31 7b 0c bf 18 8c 2f bd f2 8f 2e c0 1e 43 b2 be
       -0.54875475 -0.042858213 -2.7275357 -0.3481683
0000a0 29 22 d9 be 04 0f 92 be 77 c1 6a c0 f8 51 81 bf
       -0.42408875 -0.2852708 -3.6680582 -1.010314
0000b0 8a 95 d3 3d 25 70 01 be a9 2a 1a 40 ba 86 ca 3d
       0.10331257 -0.12640436 2.4088538 0.09888978
0000c0 b1 dd 60 bd f6 3c 0a 3d a2 72 30 bf 7e 1d 3f be
       -0.05489892 0.033749543 -0.68924916 -0.18663594
0000d0 b9 f2 16 3f 68 68 96 be e4 d8 c5 bf be b8 0f bf
       0.58964115 -0.2937653 -1.5456815 -0.5614127
0000e0 cb b0 32 3d 47 fc a9 3e 93 e4 dd 3d c9 d8 85 3f
       0.043625634 0.33200285 0.10834613 1.0456783
0000f0 44 63 6b 3e 9c 32 c9 be 8b 12 72 bf 49 6f 0d bf
       0.22987086 -0.39296424 -0.94559544 -0.5524793
000100 58 12 89 3e 3e 02 91 3e 15 63 c0 3d b6 20 f4 3e
       0.26771808 0.28322023 0.093938984 0.47681206
000110 15 6d 88 3e b4 33 f0 3e c1 0d 4d 40 f2 b4 72 3f
       0.26645723 0.46914446 3.2039645 0.9480735
000120 72 b1 f5 3e de 08 1e bf 4c 5b f3 3b 2f 05 00 bf
       0.47986943 -0.6173228 0.007426655 -0.5000791
000130 29 b0 0b be fd 1e d8 bc 63 b1 40 c0 44 0d 11 bf
       -0.13641419 -0.026381964 -3.0108268 -0.56660867
000140 98 23 26 3f 7c ab 37 be 88 31 fa 3e 57 cb 1c 3f
       0.6489806 -0.1793651 0.48865914 0.6124777
000150 bd cb d0 be a7 73 81 3e 5d ef 2c c0 d8 e4 88 be
       -0.4078044 0.25283548 -2.7021096 -0.26737094
000160 9e ce 3d 3e ee af 94 be 1f de 4a bf 08 e0 8d bf
       0.1853585 -0.29040474 -0.7924518 -1.1083994
000170 97 9a d5 be 43 e9 33 be 13 df 07 40 3c da c7 3e
       -0.41719505 -0.17569451 2.1229904 0.39033687
000180 70 65 74 be 4e 4c 05 bf 75 8a 05 40 dd 06 16 3f
       -0.2386682 -0.52069557 2.0865757 0.5860422
000190 9a 54 89 bb 9c 77 ba bb 6a 60 1e 3c c0 33 9b bc
       -0.0041909935 -0.005690528 0.009666542 -0.018945575
0001a0 03 a5 00 bf 64 5f c3 3e 24 09 07 c0 df 6b c5 3e
       -0.5025179 0.38158715 -2.109933 0.38558862
0001b0 ab 6f 17 bc e5 d2 3d bd ec 93 8d bf 03 77 44 be
       -0.009242932 -0.046343703 -1.1060767 -0.19186024
0001c0 f9 c3 3b bf 6e 2b 62 be 94 33 13 bf a6 84 79 be
       -0.73345906 -0.2208688 -0.57500577 -0.24367008
0001d0 30 aa 51 be 7d 4f 83 bd 6a 5f c2 bf 12 bf 7a 3e
       -0.20475078 -0.064116456 -1.5185368 0.2448695
0001e0 c1 db 03 3f ae d3 16 3f ca 5a 5e 40 55 c2 71 3f
       0.5150719 0.5891675 3.4742913 0.9443715
0001f0 25 86 b8 3d 39 45 12 be cc 84 e5 3f 7a 12 77 3d
       0.09009961 -0.14284219 1.7931151 0.060320355
000200 5a 7a 78 3e 46 1b 25 bf 88 bf cc be 76 22 c3 be
       0.24265423 -0.6449474 -0.39989877 -0.3811223
000210 f1 64 33 3f 83 c4 d0 3e e8 eb fc 3f 3a 3d e2 3e
       0.700759 0.40774927 1.9759493 0.44187337
000220 22 4d ee be 80 5f 2d bf c1 18 32 bf 00 3f ed be
       -0.46543223 -0.67723846 -0.6956902 -0.46337128
000230 e6 60 c1 3e 06 d7 37 3f 4c d8 cb 3f 37 14 5a 3f
       0.3776924 0.71812475 1.5925384 0.85187095
000240 9a bd 3c bf a5 8a 07 be da 89 06 bf ae bc 2a 3e
       -0.7372681 -0.13236482 -0.52554095 0.16673538
000250 66 59 de be 6b 11 b0 be 2b 51 21 c0 4a 1e 2e bf
       -0.4342758 -0.3438829 -2.520579 -0.6801497
000260 80 8b 2a 3f e3 ee 22 3f 9d 09 fb 3f 76 82 c9 3e
       0.6661911 0.6364576 1.9612309 0.39357346
000270 ed 46 35 3e 30 59 4c 3f bb ce f8 3f 1e ae 44 3f
       0.17702837 0.7982359 1.9438089 0.7682818
000280 a5 0a 91 bc 6d ca a3 3d 64 6e 71 c0 00 5f 08 bf
       -0.017705271 0.07997594 -3.7723627 -0.5326996
000290 9e 4c 47 3d b1 63 79 3e af a9 60 bf 48 55 3f 3f
       0.048657052 0.24354436 -0.87758917 0.74739504
0002a0 01 cf ba be c2 2f d2 3e 9e 30 d5 3d e5 6b af 3f
       -0.36486056 0.4105206 0.104096636 1.3704802
0002b0 26 04 fb bc 1f d8 9c 3d 4d ca 2b 3f dd ae 48 3d
       -0.030641627 0.07658409 0.6710556 0.048994888
0002c0 21 ed 02 3e 29 d4 7c be f9 0e 73 40 6b 58 ff 3e
       0.1278577 -0.24690308 3.7977889 0.49872145
0002d0 53 61 67 bb 0c aa d8 bc 80 de d0 be 2a d2 12 3e
       -0.0035305812 -0.026448272 -0.40794754 0.14337984
0002e0 ad 18 aa 3e f7 67 a7 3e 12 68 83 40 ad aa 35 3f
       0.3322195 0.32696506 4.106454 0.70963556
0002f0 c4 d8 91 3d c8 85 c0 bd 6b b1 8f 40 67 fe 42 3f
       0.07121423 -0.09400517 4.4904075 0.7616944
000300 1c 4c 42 3e e9 02 0a be b4 50 2b 40 8d 83 36 3e
       0.18974346 -0.13477673 2.6768007 0.1782362
000310 9f dc f0 3d 7b 62 06 bf a3 41 3a c0 4d 60 7a 3d
       0.1176083 -0.5249402 -2.9102561 0.061126996
000320 16 f8 e6 3e 91 56 7c be 25 30 30 40 51 db c2 3d
       0.4511115 -0.24642397 2.7529385 0.095144875
000330 22 0d e3 bc 35 ea 92 3b 8b 1b 4a 40 c4 07 76 3e
       -0.027716223 0.004483486 3.157931 0.240264
000340 b0 9f a3 3e a2 b8 56 3f 70 02 2d bf 0a 3b 6a 3f
       0.3195777 0.8387548 -0.67581844 0.91496336
000350 3e fb c8 be ad 89 95 be 80 cc 46 c0 41 f0 66 bf
       -0.39254183 -0.292066 -3.1062317 -0.9021035
000360 d0 0f a2 3c 88 da d4 bd ed 57 cd 3f 66 07 a7 bf
       0.01978293 -0.10393244 1.6042458 -1.3049133
000370 8e fa 0e 3f 80 47 f7 3e 83 db 0d 40 90 6a 1f 3f
       0.55851066 0.48296738 2.216523 0.62271976
000380 a1 54 28 3f d7 18 87 3d 7c df 98 bf 37 c4 ed bd
       0.65754133 0.06596535 -1.1943202 -0.11609691
000390 74 84 46 be 02 93 b2 be ea 87 db bf 1a e4 7e 3f
       -0.19386464 -0.34877783 -1.7150853 0.99566805
0003a0 e6 9a 06 bc ea 98 b2 bc 9b d6 63 40 3e dc e6 3e
       -0.008215642 -0.02180143 3.5599735 0.45089906
0003b0 38 42 a4 3c 08 1a 71 be 52 58 39 bf 03 35 d2 be
       0.020051107 -0.23545086 -0.7240039 -0.4105607
0003c0 ed 03 a2 ba d0 95 fe bb 24 1a 56 c0 21 ee 2d be
       -0.0012360789 -0.007769324 -3.3453455 -0.1698537
0003d0 55 5f ae 3c 51 e5 2e bb 7f 8e 87 40 af a0 0d 3f
       0.021285692 -0.0026686976 4.2361445 0.5532331
0003e0 4b 7f 31 3f 73 17 bb 3e 5c a5 ea bf 26 b7 4f 3e
       0.6933486 0.36541328 -1.8331714 0.2028471
0003f0 7d 9e 43 3c 9a 96 75 bb 84 34 8b c0 1a f8 0c bf
       0.011939642 -0.0037473799 -4.3501606 -0.5506607

fc1.bias f4 [128]
000000 bc ae 76 bf db 51 2e bf 4a 34 10 bf c1 b7 d6 bf
       -0.96360373 -0.6809365 -0.56329787 -1.6774827
000010 af cb af be fe d8 e7 be 3e ff 24 bf 14 b4 e2 bb
       -0.34335086 -0.4528274 -0.6445197 -0.0069184396
000020 ee ea 7d 3e 61 58 52 bf 3e 46 99 bf 51 20 46 3f
       0.2479665 -0.82166106 -1.1974561 0.7739306
000030 27 a2 30 3f ee 4b 68 bf 27 b0 18 3e 61 c0 86 bf
       0.68997425 -0.9074086 0.14910947 -1.0527459
000040 79 25 2c 3e 38 82 13 bf eb d4 1a bf 35 25 b5 bf
       0.1681117 -0.57620573 -0.6048114 -1.415198
000050 b7 ee cd bf 20 71 0f bc 91 e9 19 3f 95 7b 45 bf
       -1.6088475 -0.008754998 0.6012202 -0.77141696
000060 97 ea a3 be d0 78 5e bd a4 ce 68 bf 7f eb c0 be
       -0.32014915 -0.054314435 -0.9094031 -0.3767967
000070 dd 72 82 bf 1c e2 ca 3e 7e 32 94 bf 1c 85 52 3f
       -1.0191303 0.39625633 -1.1577909 0.8223436
000080 0e 15 38 bf 35 18 b9 bf 0d 76 a2 bf 58 82 c1 bf
       -0.71907127 -1.4460512 -1.2692276 -1.5117903
000090 f7 87 04 3f 9d e7 08 bd ee 65 95 bf 4c 83 78 bf
       0.51769966 -0.03342401 -1.1671731 -0.97075343
0000a0 7c c3 40 bf d1 b5 80 be ac 76 50 bf e9 45 9e 3e
       -0.75298285 -0.25138715 -0.8143108 0.30912712
0000b0 5a 1a a9 bf 38 15 9d 3e 61 79 73 bf 37 5c 93 bf
       -1.3211167 0.3068025 -0.95107085 -1.1512517
0000c0 7d ce 4a bf 82 fb 26 be 9e 20 8e bf 29 8e 36 bf
       -0.79221326 -0.1630688 -1.1103704 -0.7131067
0000d0 a9 9c f0 be c9 dc 80 bf 46 4e d2 3d 28 7e 85 bf
       -0.46994522 -1.0067378 0.10268836 -1.0429125
0000e0 93 bf b8 bf e6 7f 9f bf 68 3d 40 bf cc 18 34 3f
       -1.4433464 -1.2460907 -0.750937 0.7035034
0000f0 99 8c 2a bf e8 37 5a bf 8a 69 89 bf 72 5f 5a bf
       -0.66620785 -0.85241556 -1.0735333 -0.8530189
000100 24 d5 86 bf 7c 76 87 bf 10 c0 29 bf c5 b9 1c bf
       -1.0533795 -1.0583034 -0.6630869 -0.6122096
000110 e0 1d 38 3f 63 66 90 3e c5 1f 1e bf 18 79 b5 be
       0.71920586 0.28203115 -0.61767226 -0.3544395
000120 a1 8e 94 3e fa 50 83 bf c0 f7 1e 3f a8 48 96 bf
       0.29015067 -1.0259087 0.62096786 -1.1740923
000130 9a b8 c1 be 90 73 ce be c2 fa 22 be a1 b1 4f 3f
       -0.37836152 -0.40322542 -0.15915969 0.81130415
000140 db 9e 09 bf 34 e2 52 be 65 df 92 bf c1 e8 38 bf
       -0.5375802 -0.20594102 -1.1474425 -0.72230154
000150 f2 e7 1e 3f 5c 92 9d be 58 06 7f bf e7 aa 6b 3f
       0.6207267 -0.30775726 -0.99619055 0.9205765
000160 6b 0b 12 bf d3 3a 2c be d8 a3 43 bf f1 01 98 bf
       -0.5704867 -0.16819315 -0.7642188 -1.1875592
000170 1c 68 54 bf 3d a4 4a bf 4d 7f c0 3e 6d b5 07 3e
       -0.8297136 -0.7915686 0.37597123 0.13252802
000180 75 5e 6c bf 4e e2 22 bf c9 b2 3b bf f5 91 47 bf
       -0.9233163 -0.63626564 -0.7331968 -0.7795709
000190 95 fe 0b bf 01 8d 34 3f f4 80 73 3e bd 0c a1 bf
       -0.54685336 0.70527655 0.2377966 -1.2582012
0001a0 4a f2 25 bf 66 46 b0 be f5 26 1d bf 87 fb 96 bf
       -0.6482283 -0.3442871 -0.6138757 -1.179551
0001b0 0b 0f 5f bf bd bc d1 bf ed 6b 49 bf 89 fd 79 3e
       -0.8713233 -1.6385723 -0.78680307 0.24413122
0001c0 2a 3a ba bf f7 f6 1f bf 1f d3 52 bf f6 7f 32 3f
       -1.4549 -0.62486213 -0.82353395 0.697265
0001d0 33 ef a3 be 26 2c be bf 35 a2 1a 3e f3 32 3b be
       -0.32018432 -1.4857223 0.1510094 -0.18281154
0001e0 b0 64 8c bf 52 03 4f bf e0 9a 00 be 20 a5 e9 be
       -1.0968227 -0.8086444 -0.1255908 -0.45633793
0001f0 71 d5 7f bf 82 22 cb be 1a 96 be bf 8d 2f 75 be
       -0.9993506 -0.39674765 -1.4889557 -0.2394392

fc2.weight f4 [128, 128]
000000 12 5f 91 be 50 a4 ae 3f 6d 63 14 3f 45 08 e9 be
       -0.28392845 1.3643894 0.5796421 -0.45514122
000010 d4 9e 6e 3e 71 5f 01 bf 85 6b 3a 3e 9b 12 3c bf
       0.23302776 -0.5053626 0.18205078 -0.7346589
000020 7a 30 41 bf c6 83 cd 3d a1 37 dc be 84 7b 0b bf
       -0.75464594 0.100348994 -0.4301119 -0.54485345
000030 10 56 e4 be cd 28 b0 bd f2 60 e4 3d 03 cb 38 c0
       -0.4459691 -0.08601532 0.11151303 -2.8873909
000040 37 a7 47 bf 6e 5a c5 3e 5f e3 21 3e 17 1e 12 40
       -0.77989525 0.38545555 0.15809391 2.2830865
000050 b6 eb b5 bd 4b 7d 79 bd 4a 64 bb 3d e7 76 e3 3e
       -0.08882849 -0.060910504 0.09149988 0.44426653
000060 46 41 e8 3e af 4e ec bd 11 58 ac 3f da 21 31 bd
       0.453623 -0.11538445 1.3464376 -0.043245174
000070 53 7a 0b bf d8 6f 36 be 74 fe 2d 3e 92 2a 11 bf
       -0.54483527 -0.17816103 0.16991597 -0.5670558
000080 9c 6e d3 3d c0 2c b7 bf 53 09 8f 3e 81 d1 06 c0
       0.103238314 -1.4310532 0.279368 -2.106537
000090 70 61 89 be df 7c 80 3d f6 a4 40 bf ca cf ce be
       -0.2683215 0.06273817 -0.7525171 -0.40392905
0000a0 7e 70 6a 40 ec c4 d7 3f 32 61 2e bf 51 85 fe be
       3.663116 1.6856971 -0.6811706 -0.49711087
0000b0 14 a0 90 40 48 bd 7c bd 78 2b 6e 3f 1d e7 2e 40
       4.519541 -0.06170395 0.9303508 2.732856
0000c0 fd 69 b9 40 76 58 46 3d c6 50 f8 bf cb 9c 8e 40
       5.794188 0.048424207 -1.939965 4.45664
0000d0 e6 28 e8 3b df cd b9 3e 83 cd b6 bf 65 59 ce 3e
       0.0070849536 0.3628988 -1.4281467 0.40302578
0000e0 c5 fa 55 3d 7f e2 7d be 9a ce 26 40 cd d8 5b 3c
       0.052241106 -0.24793433 2.60636 0.013418389
0000f0 5d 62 a0 3e 13 66 2b 40 0b ab 97 3e 04 55 57 40
       0.31325045 2.678105 0.29622683 3.364564
000100 2c 03 f5 3e 4d c9 bd bd cb 08 dc 3f 8b fd c1 40
       0.47853982 -0.09266911 1.7190183 6.0622
000110 d7 0f 34 be ee a3 cf bd 7b f9 19 40 2d d8 df be
       -0.17584167 -0.10138689 2.405852 -0.43719617
000120 a7 72 93 be ae c0 7b bf f7 31 32 be 65 c6 66 bf
       -0.2879841 -0.9834088 -0.17401873 -0.90146476
000130 92 81 7a 3e 5e 68 3b bf 9f 91 4b be 4f 20 65 bd
       0.2446349 -0.73206127 -0.19879769 -0.055939015
000140 aa 8b 5a 3d 25 44 a7 be a4 1e 21 3e 11 de 46 40
       0.05335585 -0.32669178 0.15734345 3.1073039
000150 1b d9 07 3f 63 f5 a5 be 1a f4 69 bf 29 bf 48 bf
       0.5306565 -0.32413778 -0.91388094 -0.7841669
000160 6e f5 ad be 0b fc 25 3d d6 05 1d bf 55 27 9a bf
       -0.3397631 0.04052357 -0.6133703 -1.2043253
000170 df 83 ad 40 bd cd 10 3f 55 97 c3 3e 5f 54 41 bd
       5.4223475 0.5656393 0.38201395 -0.047199603
000180 d1 6a bb be 7c 48 67 3d df 32 6a bf 28 df f9 bf
       -0.36604932 0.05646561 -0.91483873 -1.9521227
000190 ac 5c 1e 3e aa 8a f8 be 08 5f b2 be 48 ac 8c be
       0.15465039 -0.48543292 -0.34838128 -0.2747519
0001a0 c5 f1 9d 40 24 d4 05 3d 6a 96 54 40 3d 8a 4c 3f
       4.935763 0.032673016 3.3216805 0.79898435
0001b0 b8 b4 42 3e c6 12 29 3f f6 3f 3a 40 d6 a2 5f 3d
       0.19014251 0.6604427 2.9101539 0.05459865
0001c0 b3 6d ea 3e 2b fa d7 bf 4c 2f 97 40 78 5f e8 be
       0.4578682 -1.687322 4.7245235 -0.45385337
0001d0 71 15 32 bf 66 cb 9d 3f c6 af b5 be 17 d9 3d 3e
       -0.69563967 1.2327697 -0.35485667 0.18539844
0001e0 b9 9d e0 be dd 13 b4 bf 4e 10 83 3f 2b ec dc bd
       -0.43870333 -1.4068562 1.0239351 -0.10787233
0001f0 e0 1a 27 bf c8 6f 9d bf db b3 1f be d2 ac 09 bf
       -0.65275383 -1.2299738 -0.15595953 -0.5377933
000200 ad 06 5c be 96 fd f2 bd 9f 8c 35 bf 2f 05 e2 be
       -0.21486922 -0.11864774 -0.70917696 -0.4414458
000210 e0 bb 08 bf 9c 05 51 be 60 06 e6 3e ed 16 0f 3e
       -0.53411674 -0.20412296 0.4492674 0.13973589
000220 c7 b0 88 3d 1b c4 cc 3e 70 c4 40 c0 a8 9d bc 3e
       0.066743426 0.39993367 -3.0119896 0.36839032
000230 9e 96 b7 3d 1b 72 e7 3e 45 38 3f 3e 42 1b 1d bf
       0.08964275 0.45204243 0.18673809 -0.6136972
000240 be 5f a3 3d c5 2f 8c be 33 ae 90 3d 69 b1 1e c0
       0.07977246 -0.27380195 0.07064476 -2.4795783
000250 b7 e5 4a 3d 7b 17 a8 be 84 a6 82 3e 4b 6e d6 3e
       0.04953548 -0.32830414 0.25517666 0.41881022
000260 6f 1f 65 3e a9 92 a5 3b ba cc 7b be ce 54 a7 be
       0.22375272 0.0050528836 -0.24589816 -0.32681888
000270 4f e9 dd 3d c0 31 1b be 72 f5 85 bf b4 00 a2 3e
       0.10835516 -0.15155697 -1.0465529 0.3164116
000280 1a 2d c9 be 14 3c 6f c0 bd 8b 9e bf 4b 5a e2 bf
       -0.39292222 -3.7380419 -1.2386395 -1.7683805
000290 40 70 59 3e ad 44 0c be 88 13 a4 bd 61 f4 e2 bf
       0.21234226 -0.13698073 -0.08011538 -1.7730829
0002a0 18 8a 33 c0 ad ae ec be 8e d2 af 3e d0 67 d6 bc
       -2.8053036 -0.46227017 0.34340328 -0.026172549
0002b0 e9 0e 8d c0 f0 aa 12 bd 33 22 ea bf 11 14 10 c0
       -4.40807 -0.03580755 -1.8291687 -2.2512248
0002c0 6a 21 a5 c0 c3 bc 1a bd ee f0 2d c0 62 67 86 c0
       -5.160329 -0.037777673 -2.7178302 -4.20012
0002d0 7a 2d 8a bf 25 c7 00 c0 7e a7 e3 3e c2 e5 21 bc
       -1.0795128 -2.0121548 0.44463724 -0.009881439
0002e0 6d 9b 2f c0 86 a8 02 3f cb b8 59 c0 41 c5 e0 3d
       -2.7438614 0.51038396 -3.4019039 0.10975123
0002f0 e6 a1 26 c1 7d 35 42 c0 0b d1 f1 ba 0e 05 11 c0
       -10.414526 -3.0345147 -0.001844914 -2.2659335
000300 6c 65 96 3e 2e 45 32 c0 ac f6 00 c1 b3 8b 0f c0
       0.29374254 -2.7854724 -8.060223 -2.2429016
000310 06 04 35 3e bc 38 10 3e 1e ed 55 bf df 97 af bd
       0.17677316 0.14084142 -0.8356494 -0.08573889
000320 93 cc 16 bd d5 fc 51 3e 90 d1 23 3d 1e fa ab c0
       -0.03681619 0.20506604 0.039994776 -5.374282
000330 b7 e0 0d 3e 27 b9 8f 3d 11 80 f1 3d f2 fe 8d 3e
       0.13855253 0.07017737 0.11792005 0.2773357
000340 d9 50 08 3e f1 16 01 3f e2 d7 aa c0 9b ab 34 c0
       0.13312091 0.5042563 -5.338853 -2.822974
000350 40 18 19 3e a0 cb dd bd 1a cb 3d c0 54 ad b3 3e
       0.14950657 -0.10829854 -2.9655213 0.35093176
000360 1c af 67 3d 4b b4 ee bc 0d 66 63 bf b4 84 69 c0
       0.05656348 -0.029138705 -0.8882759 -3.6487246
000370 8d fa d1 c0 96 79 c5 bf f3 80 53 bd 88 33 41 be
       -6.561835 -1.542773 -0.051636647 -0.18867314
000380 e7 e9 b9 c0 47 0c 15 3e b7 c4 cd be 0d 39 d4 be
       -5.8098025 0.14555465 -0.40189144 -0.41449776
000390 46 29 bf be df ad 92 3e 1d db 12 be 73 f2 19 c0
       -0.37336177 0.28648278 -0.14341398 -2.405423
0003a0 79 f1 88 c0 38 b5 e1 3e 84 6e 11 c0 e5 da fe be
       -4.2794766 0.4408357 -2.2723703 -0.49776378
0003b0 11 14 77 bf 58 c6 80 be b5 99 49 c0 3d dd 50 be
       -0.96514994 -0.25151324 -3.1500065 -0.20396896
0003c0 4f 43 28 3e 78 d0 bd bf 67 28 10 c0 15 a0 49 3e
       0.16431926 -1.4829245 -2.252466 0.19689973
0003d0 b3 ae fd 3e 24 a0 f7 bf e1 fc 53 3e b5 d5 66 3d
       0.49547347 -1.9345746 0.20701934 0.05635615
0003e0 bd 7f a9 bf 80 23 62 3e 63 1d 49 bd 71 58 28 3e
       -1.3242108 0.22083855 -0.04910029 0.16439988
0003f0 4c c0 53 bf 99 18 32 3e ae 3e 88 bf a8 16 43 be
       -0.82715297 0.17392196 -1.0644128 -0.19051611

fc2.bias f4 [128]
000000 03 df 52 be fb 41 75 3f c4 2d c1 3e ef a6 1a 3d
       -0.20592885 0.95803803 0.3773023 0.037756857
000010 8e 77 e9 bd fa 05 cd be ed 4b 94 3f 0f 7d 03 be
       -0.11399756 -0.40043622 1.1585671 -0.12840675
000020 13 f8 cd bd 82 a2 0f bd ed a9 55 bd 84 4a 02 be
       -0.10057082 -0.03506709 -0.052164007 -0.12723738
000030 c1 65 8b 3f ca 29 f9 bd 06 8c 85 3f 94 7f 9f 3c
       1.0890428 -0.12166174 1.0433357 0.019470014
000040 68 54 b0 3e c7 f9 97 3f 59 04 8d 3c a7 97 86 3f
       0.34439397 1.1873101 0.017213987 1.0515031
000050 1d e3 e7 bc 57 87 fe 3e 0d 2c 17 3f 87 4b 47 3c
       -0.028306538 0.4971263 0.5905159 0.012164003
000060 8b d3 27 3f 7c 10 52 bc 95 81 3b 3f b8 ef 09 bc
       0.65557164 -0.012821313 0.732446 -0.00841897
000070 af f4 ae bd e5 f7 8b bd db 5c 02 3f 9f c9 09 3d
       -0.085427634 -0.068343915 0.50922936 0.033639546
000080 26 01 51 3f a7 b9 54 3f 9e 0a c9 3e fa cd a1 bd
       0.8164238 0.83095783 0.39265913 -0.07900615
000090 d0 50 22 3f 8f a1 be be ad b6 71 3f 36 9f 92 bd
       0.6340456 -0.37232634 0.94419366 -0.07159273
0000a0 c9 68 c5 be ee 60 e6 3e 24 a7 10 bd ac 4a df bd
       -0.38556507 0.44995826 -0.035315648 -0.109029144
0000b0 61 8f eb 3e fc 30 1e bc 34 9c df bd cb db ee bd
       0.46007827 -0.0096552335 -0.10918465 -0.11663016
0000c0 52 6a 77 be 11 bf b0 3c 47 3c 7c 3f 05 15 8c 3f
       -0.24161652 0.021575483 0.98529476 1.0943915
0000d0 37 3e 60 3f 80 1a c8 bc 0a 0d 02 3a d8 81 e4 bd
       0.8759493 -0.024426699 0.00049610494 -0.11157578
0000e0 7b 77 50 3f 00 6a e1 bc 29 06 97 3f a6 f1 b9 bd
       0.8143231 -0.027516365 1.1798755 -0.09079294
0000f0 2c 2c 65 3d 74 bd e9 bc 4d 63 95 3f 86 f4 fa bd
       0.05595033 -0.028532721 1.1670929 -0.122536704
000100 12 db b1 be af ac 8b 3f 0e 4a eb 39 ed 11 cf 3c
       -0.3473745 1.0912074 0.00044877868 0.025277102
000110 ee 1a 5f bf 31 14 5d 3f 28 32 fe 3c 43 db d8 bd
       -0.87150466 0.86358935 0.031029776 -0.10588696
000120 ff 8e 8a bd 4b 15 f2 3b e0 04 87 3d 10 66 b0 bd
       -0.067655556 0.007387792 0.06592727 -0.08613217
000130 00 ac cb bd f5 7a 91 3f f0 56 9c bd 9c 33 58 3f
       -0.09944916 1.1365649 -0.076337695 0.8445375
000140 9f 38 18 3d 66 04 e9 3b 1c 3b 8b 3f 8e 68 7c 3f
       0.037163373 0.00711112 1.0877414 0.9859704
000150 2c 49 41 be 0b 9b c1 bc 55 96 65 3d f8 1c 1f 3d
       -0.18875569 -0.0236335 0.05605157 0.038845986
000160 24 de 36 bc 24 74 89 3f 49 6a 96 3f a6 a1 d4 bd
       -0.011161361 1.0738568 1.1751186 -0.103823945
000170 98 e2 3c 3f 5e 85 c4 bd 34 8c 77 bd 1c 3a 8c 3f
       0.73783255 -0.0959575 -0.060436442 1.0955234
000180 88 c3 c2 be 61 9e c7 bd 7e 14 12 bd be eb d8 be
       -0.38039804 -0.09747005 -0.035664074 -0.42367357
000190 fb 40 b2 bd d9 30 d7 bc 52 34 00 bd d4 1d 8a 3f
       -0.087038 -0.02626841 -0.031299897 1.0790353
0001a0 c7 64 e3 bd ea 47 d8 bd 47 b8 a6 3f aa ef 41 3f
       -0.11103206 -0.105605915 1.3024987 0.75756323
0001b0 91 31 29 bc 11 e6 62 be 5e 29 79 3f de 5e a1 bd
       -0.010326759 -0.22158076 0.97328746 -0.078794226
0001c0 55 f7 1b bd ba f8 03 bd c4 7f 9a 3c 81 48 5b be
       -0.03807767 -0.032219626 0.018859752 -0.21414377
0001d0 88 6b 7a 3f 83 6e 63 3f 33 c2 ca 3c c4 8b 11 3e
       0.9782033 0.888405 0.024750805 0.14213473
0001e0 2b 31 75 3f 2b c2 48 bd f7 29 86 3f a8 fe b4 bd
       0.9577815 -0.049013298 1.0481557 -0.08837634
0001f0 b5 3e 97 bd 1a 68 3d bd 95 09 8d 3f 2f 3d 63 bd
       -0.07385007 -0.046241857 1.1018549 -0.05547827

fc3.weight f4 [2, 128]
000000 4e 27 a3 bf a4 9f df 3f ff 88 97 3f 0a 49 06 bd
       -1.274637 1.7470593 1.1838683 -0.0327845
000010 90 4b ba bb f7 ce 6e c0 2e 70 67 3f e8 a9 3e bd
       -0.0056852773 -3.7313821 0.9040555 -0.046548754
000020 eb 76 29 bc 20 6c 4e bb cc 97 94 3c df 24 5b bd
       -0.010343294 -0.0031497553 0.018138789 -0.05350196
000030 61 94 99 3f 08 c3 e5 be 36 43 84 3f 88 03 1c bd
       1.1998407 -0.4487536 1.0333011 -0.038089305
000040 80 eb 2c 40 40 6b 22 3f c3 38 12 3d 29 c5 9a 3f
       2.7018738 0.634449 0.035698663 1.2091419
000050 4a 94 e4 bc f4 e2 a7 3f a7 77 45 bf e8 87 1a 3d
       -0.027902741 1.3116136 -0.771357 0.037727267
000060 10 98 dc 3f 40 aa 59 3c 6f e5 5a bf 4a ff d7 bc
       1.7233906 0.01328522 -0.8550634 -0.026366848
000070 ce 41 3c bd 0f fa da 3c 97 56 b0 3f de 49 99 bb
       -0.045961194 0.026730565 1.3776425 -0.004677995
000080 bf 79 94 3e 2d f0 34 bf 0b fb a2 3f bf 28 e4 bc
       0.28999135 -0.7067898 1.2732862 -0.02785146
000090 fb ca 86 bf 6a f2 16 c1 a3 e2 b7 3f 40 55 93 bd
       -1.0530695 -9.434183 1.4366039 -0.071939945
0000a0 e7 da 0f 40 97 de 01 c0 f4 dd cf 3c 75 98 4a 3c
       2.2477357 -2.0292108 0.02537439 0.01236545
0000b0 e5 61 86 3f 8c 7d 60 3c 1a e0 5f 3c a5 fe f5 bb
       1.0498625 0.013701808 0.01366427 -0.0075071626
0000c0 63 a3 d8 bf 1f fa 89 bd ef bc 1a 40 41 29 a3 3f
       -1.6924862 -0.0673716 2.4177816 1.2746965
0000d0 f7 78 4d 3f 69 0e 95 bc 83 ba 2c bc 00 e8 23 3b
       0.802627 -0.018195348 -0.010542515 0.002501011
0000e0 d7 85 de be 53 7d 9d bd 80 fc 6b 3f 2f ba 97 bd
       -0.43461487 -0.07689919 0.9218216 -0.074085586
0000f0 6c 2e 85 bc 1d c5 b6 c0 d9 60 7a 3f eb bf a6 bd
       -0.016257487 -5.7115617 0.9780403 -0.08142074
000100 b4 f9 55 c0 c5 a4 c5 3e 35 ac df bc da 87 f5 bc
       -3.3433657 0.38602272 -0.027303794 -0.029972006
000110 19 19 15 c0 08 30 39 40 66 d1 cd bc 77 44 6f bd
       -2.3296568 2.8935566 -0.025124263 -0.058414903
000120 37 3a ee bc 40 a8 aa bc a0 51 6f 3a e0 5f 1f 3d
       -0.029080493 -0.020832181 0.00091292895 0.038909793
000130 28 58 92 bc fc 6c 80 3f 5e 97 00 3d 03 55 40 3e
       -0.017864302 1.0033259 0.031394355 0.1878243
000140 38 a1 d0 ba c8 54 cb bc bc 91 e0 3e 5e 2e 98 be
       -0.0015917188 -0.0248207 0.43861187 -0.29722875
000150 40 27 22 be 4b df 82 3d 28 34 dd bc e2 03 45 3c
       -0.15835285 0.06390246 -0.02700241 0.0120248515
000160 9a dc a0 bb 3e 7e fe 3e d3 89 7e 3f b2 24 1d bc
       -0.0049091103 0.4970569 0.99429053 -0.009591268
000170 f8 81 15 40 06 f6 3c bd a9 2c e4 3c b5 0a 9a 3f
       2.3360577 -0.046133064 0.027853327 1.2034518
000180 5b ae 2b 41 fb e0 83 bc d0 85 3c bc bc fe 10 c1
       10.730067 -0.01609849 -0.011506513 -9.062191
000190 31 5e 8f bd 8a 28 f8 bc 9a 64 2c 3c dd a0 8c 3f
       -0.070003875 -0.030292768 0.010522032 1.0986592
0001a0 b1 2c 2b 3d e8 a1 31 3b 41 a7 9b 3f 96 74 f6 3f
       0.041790668 0.002710456 1.2160417 1.9254329
0001b0 25 79 03 bd 06 10 3f bf cf 3e 96 3e 78 8f 43 3d
       -0.032097954 -0.74633825 0.29344794 0.047744244
0001c0 a8 26 7b bd bf 6e 4b bd 46 6a 38 bd 9b 98 64 be
       -0.061316162 -0.049666163 -0.045023225 -0.2232384
0001d0 bc 09 58 3e d2 a3 b5 3f 52 16 87 bc f3 7a a1 3f
       0.21097463 1.4190619 -0.016490135 1.2615646
0001e0 b4 22 a3 3f ef ca 0d bd 1e 51 70 3f 4e 24 a8 bc
       1.2744966 -0.03461736 0.93873775 -0.020525124
0001f0 38 9f 3a 3c fd c9 f4 3c 66 f2 9e 3f 67 d9 1b bd
       0.0113905 0.029881472 1.2417724 -0.038049128
000200 98 11 68 40 fd f9 cf 3f a4 56 86 3f e1 95 28 3c
       3.6260738 1.6248165 1.0495191 0.01028964
000210 31 fa 72 bc 0c db 4d c0 0d 9f 54 3f ca 8f a6 3d
       -0.014830158 -3.2164946 0.8305519 0.08132894
000220 8d 1c 3a bc f4 bf e6 bc 42 a8 84 bd e7 f6 aa 3c
       -0.011359346 -0.028167702 -0.06477405 0.020869685
000230 d1 35 c3 3f e1 37 4b 40 d1 ae ec 3f 4a 3a d3 3b
       1.5250798 3.1752856 1.849085 0.0064461576
000240 25 a7 ac 3f e9 d4 3f 3f 4b 96 77 3c 5f 70 e9 3f
       1.3488508 0.7493425 0.015111516 1.8237418
000250 8a 34 a1 3d 6b 7b c9 3f 6b 7e b3 3f 2f b3 84 bd
       0.07871349 1.5740789 1.4022955 -0.06479489
000260 2f b1 9d bf c1 1b d7 bc fc a3 93 3f e2 91 07 3c
       -1.2319697 -0.026258351 1.1534419 0.008274527
000270 aa d3 ba bb dd e5 74 bc 77 16 12 c0 30 f5 da 3c
       -0.005701502 -0.014947382 -2.2826211 0.026728243
000280 d1 48 ca 3f 10 db 14 40 52 5b e6 bf 7a 60 61 bb
       1.5803472 2.3258705 -1.7996619 -0.003438978
000290 e9 31 8f 3f e7 c9 9d 3f ce f0 d1 bd f5 9a dd b9
       1.1187106 1.2327241 -0.10251008 -0.00042267857
0002a0 83 06 0f c1 85 65 8f 3f 80 14 6b bd ef 61 b2 3d
       -8.93909 1.1202856 -0.057392597 0.087100856
0002b0 ea b8 7b 3f ee a7 67 3d 45 57 77 bc a6 28 59 3d
       0.9832903 0.056556635 -0.01509649 0.05301728
0002c0 45 7e a8 c0 c9 50 e4 bc b3 fa 85 3f fa 1a d8 3f
       -5.2654138 -0.027870553 1.0467132 1.6883233
0002d0 b9 16 01 40 0b 30 1e bb 87 a8 92 bc 42 19 8e 3b
       2.017012 -0.0024137523 -0.017902626 0.004336507
0002e0 12 2f 0d 40 c6 9b 6d bc 7a 1d 02 40 2d a1 76 3d
       2.205998 -0.014502471 2.033049 0.060212303
0002f0 5e 4e 8a 3d fe 17 01 41 9c 36 00 3f 2e c3 2a bb
       0.067532286 8.068357 0.5008333 -0.0026056278
000300 c4 81 c5 be 2c 00 7d 3f 30 c2 92 3c 17 22 96 bd
       -0.38575566 0.9882839 0.017914861 -0.07330721
000310 aa 99 82 c0 9b 13 de be 16 f8 48 bd 34 cb 4c bc
       -4.081258 -0.43374333 -0.04906472 -0.012499619
000320 f2 90 2a bd 4f e9 af 3c e9 5a 19 3b 8b 74 0f bb
       -0.041642137 0.021473555 0.0023400134 -0.0021889533
000330 6d f7 f2 3c 40 59 de 3e a8 fa dd bc 5f b3 8a 3f
       0.029658997 0.43427467 -0.027097061 1.083599
000340 ad f6 d9 39 6a ff 48 3d 17 e6 d1 3e a7 78 0f 40
       0.00041573253 0.049071707 0.40995857 2.241739
000350 fb f2 01 3d ac 35 a9 bc b3 9d d0 bb c6 c8 b4 3b
       0.031725865 -0.020655476 -0.0063664555 0.005517098
000360 23 b1 de bc 84 97 a8 3f 78 9f cd 3e 22 49 5e 3c
       -0.027184075 1.3171239 0.40160728 0.013567241
000370 b1 a4 5e bf bc c5 76 bd 34 93 45 bd 28 19 0d 3f
       -0.8697005 -0.060247168 -0.048236087 0.5511651
000380 95 aa e1 3e 5f 99 df bc 58 9e 17 bd 8b 51 c3 bf
       0.44075456 -0.027294813 -0.037016243 -1.525926
000390 ad f1 26 3d e2 0d fe 3c ee 32 ab b8 99 6d bb 3f
       0.040757824 0.03101248 -8.163402e-05 1.4642822
0003a0 c6 bb 6a 3d 74 59 b7 3b 6f 02 00 3f f4 4d c3 3e
       0.05730798 0.0055953804 0.50003713 0.3814541
0003b0 41 a8 45 3c 4c cf 12 c1 63 cc 94 3f 84 53 72 bd
       0.012064041 -9.17561 1.1624874 -0.059161678
0003c0 a7 45 8b 3d 0b d6 af 3d 15 20 dd 3c 32 49 5b bf
       0.068003945 0.08585747 0.026992837 -0.8565856
0003d0 70 89 99 3f 47 c1 22 3e 4c 32 af 3c a2 44 fe bf
       1.1995068 0.15894042 0.021386288 -1.9864695
0003e0 d1 01 da 3f 38 3c e5 bc d9 54 da 3e 23 3c af 3a
       1.7031804 -0.027982816 0.4264286 0.0013369363
0003f0 2c c5 fd bc ef 8b 0c 3d 22 32 b2 3e f0 2e eb bc
       -0.030977808 0.03431314 0.34803873 -0.028708905

fc3.bias f4 [2]
000000 70 65 85 3f 2e d4 9c 3f
       1.0421581 1.2252252
