Short-To-Long/weights/dqn_curriculum_short_to_long.pth (torch, 72538 bytes, 6 tensors)

fc1.weight f4 [128, 4]
00000000: 378e c9be a226 b6bd 51af 28bf f960 37be
00000010: 745a 34bc 45df 453e 7fc7 a63f e0ad d1be
00000020: 5572 debe 4e06 03be a3eb 40bf 1b0c 823f
00000030: dacc 453f 776c 323e bb39 09bf da6f acbd
00000040: 2239 813d bd52 82bd 5054 363f 0e65 8fbe
00000050: d5fc 323f 980d 153d 4d1c 60bf 03b3 653e
00000060: 8f06 0abf 19d0 e03e 3051 103f a390 cbbe
00000070: 6829 433e 99a4 e53e c458 a13f 129b 983d
00000080: ca23 a9be 991e 693e 4d15 3a3e b7bd 903c
00000090: 513e 9b3e 1503 c53c ebc7 da3f c6cd 2d3e
000000a0: 1358 1b3f 6a6b b9be e138 8fbf 7801 43bf
000000b0: b0c3 923e ab09 efbe 483a b2be c56c 18be
000000c0: c1dc 0a3d 81bc 25be ef24 df3e f2ea 953d
000000d0: f9d9 963e 72c6 873e a51e bd3e 3b63 1a3e
000000e0: f7df a73b 14fc c8bc 7613 2140 5899 3c3e
000000f0: ab93 ed3c 62bc bfbb 691d 0ec0 ac62 afbd
00000100: fba7 f5be 841e 9e3d 6611 90bf 203f cd3d
00000110: 94b2 afbd 1715 2c3e 3913 20bf 7569 773e
00000120: 1897 b03e d193 5dbe 3cc4 a43d 87b7 0ebf
00000130: 3a28 543f 5db1 f4bd 0741 033f ad86 24bf
00000140: f7ee 033d 5c32 803d 5938 05bc 0b73 1abd
00000150: 4d5e cc3e 6480 55be 22a6 1740 08ab 883e
00000160: 670a d7be fcb9 bcbe 37ac d4bf 8426 1abf
00000170: 4e53 b73e 4a56 643e 9092 0a40 0bdd 043f
00000180: b32f e4be 4f87 b83e 88f9 7bbf 1696 b73e
00000190: e3cb 1cbe 0ab9 03be 735a f8be 54bb 00be
000001a0: da22 ebba eb11 363e 242c 2a3f a9e8 78be
000001b0: 48a0 57be b99e f7bd 97c7 1940 8862 b73e
000001c0: 2436 a1bd 72dd 9e3d f866 24bf 704b da3e
000001d0: d818 2ebf c837 8d3c 39bd 91bf d1ab 1e3e
000001e0: 7e54 5d3e ed3c a7bd f422 46bf fbfd 323e
000001f0: 0ef6 e3bc 624e f33c aa12 29c0 c9a4 f4bd
00000200: a85b 1b3e 4b67 29be efcd 573f cacb 45bd
00000210: 25c1 0f3f 97c2 df3e 1e56 983f d2ae 003f
00000220: 81ad 2e3d f48d 34be 09a6 3fbe d2d8 1bbf
00000230: d05b 23be 7d34 63be 982c 1d3e bf8b b4be
00000240: 023e 07bf 71fc 05be 9186 18be 5fab 273f
00000250: 8da4 883e 095a 143e 4427 86be bf99 8dbe
00000260: 1e77 2b3c 533d 1fbd bca1 3b40 f528 cf3e
00000270: ac94 5abe b1ed 6abe d9df 62bf 91e8 243e
00000280: cb5c c2be 4017 3fbd dc4f 0a40 da7c 7f3e
00000290: 131e dc3e 6a56 693e b2db 18bf 6b3a e73e
000002a0: 5e27 e6bd 0e19 02bf d685 43bd be2a 06bf
000002b0: 8697 da3e 9e89 a13e 95d3 1440 6840 2c3f
000002c0: 3522 58be 2982 a3bc fb4c 53be 487e a83d
000002d0: 694a 1dbf 6db0 a3be fdb3 3abf 5c9c e1be
000002e0: 5ae7 98be a03d 80be 19a5 a5bf b3b7 03bf
000002f0: 4729 33bf 046a d43e ea66 58bf 4878 53be
00000300: c699 c23e ca6f 2e3e f1ed b8be 9787 15bf
00000310: 1184 36bd fc22 9fbc b903 493e 4c19 18be
00000320: 3bbe 693e 9118 4fbe 7a74 f3be 8ad5 f2bc
00000330: c471 c53d 4ff7 2dbe ba97 9bbe 60fe 23be
00000340: 556f 1e3f 9f5a 44be d061 f8be 7276 f0be
00000350: 2558 e5be 65f2 ae3e d3fa 96bf c420 7a3e
00000360: 66ad b2be f9da dfbd 6e3e 9abf d192 1a3f
00000370: 4b94 c03b 1a00 e23d 7251 0e3f baff 553e
00000380: 0387 03be 0c57 e8bc a834 08bf 9978 d5bd
00000390: 2e93 d6bd 9b5e 3abf 405c 873f 76e6 a0be
000003a0: 31f8 bfbe 340c 423e 5399 b53f 65b0 173f
000003b0: f6a5 51bf 1558 85be 5c69 1cbf 3c1a adbd
000003c0: 2a8d 3c3d df3b b2bd 10dd 1fbe 9112 1a3e
000003d0: d79a 283f 4f75 f5be 8ccc 08bf 2d95 36bf
000003e0: d4e9 17bf d843 febe 55ed 8cbf 9b7f 2dbf
000003f0: 4fd8 5ebf ce36 9f3e cc92 133f 23fd ad3d
-0.39366314 -0.088940874 -0.6589251 -0.17908086 -0.011007894 0.19323452 1.3029631 -0.4095297
-0.43446603 -0.12795374 -0.75359553 1.0159944 0.77265704 0.17424189 -0.53603715 -0.084197715
0.06309725 -0.06363437 0.712224 -0.28006786 0.6991704 0.036389917 -0.87543184 0.22431569
-0.5391626 0.43908766 0.5637388 -0.39758787 0.19058764 0.4485214 1.2605214 0.07451452
-0.33035117 0.22765578 0.18172188 0.017668588 0.3032098 0.024049321 1.709226 0.16973028
0.60681266 -0.36214763 -1.1189233 -0.76174116 0.28664923 -0.46687064 -0.3481009 -0.14885242
0.033901934 -0.1618519 0.43582866 0.07320203 0.29463175 0.2651859 0.36937442 0.15076916
0.0051231342 -0.024534263 2.5168128 0.18417871 0.029001078 -0.0058513144 -2.220545 -0.08563742
-0.4797972 0.07720664 -1.125531 0.10021806 -0.08578983 0.1680492 -0.6252933 0.24161322
0.34490275 -0.21638419 0.08045241 -0.5574879 0.8287388 -0.11947892 0.512711 -0.64268
0.032210317 0.06259605 -0.00813111 -0.03770737 0.39915696 -0.20849758 2.369515 0.26692986
-0.42000124 -0.36860645 -1.6615056 -0.6021502 0.35805744 0.22298542 2.1651955 0.51899785
-0.44567642 0.36040732 -0.9842763 0.35856694 -0.15312152 -0.12863556 -0.48506507 -0.1257146
-0.0017939464 0.17780273 0.66473603 -0.24307503 -0.21057236 -0.12090821 2.402807 0.3581736
-0.07871655 0.07757081 -0.6421962 0.4263568 -0.6800666 0.017238513 -1.1385871 0.1549523
0.21614262 -0.081659175 -0.77397084 0.17479698 -0.027827289 0.029700462 -2.6417642 -0.11945493
0.15171683 -0.1654331 0.84298605 -0.04829005 0.5615409 0.43703148 1.1901281 0.50266755
0.042645935 -0.17632276 -0.18715681 -0.60877717 -0.15952992 -0.22187991 0.15349042 -0.35262868
-0.5282899 -0.1308458 -0.14895083 0.65495867 0.26688042 0.1448747 -0.26201832 -0.2765636
0.0104654115 -0.038876843 2.9317465 0.40460935 -0.21345776 -0.22942235 -0.88622814 0.16104342
-0.3796142 -0.046653032 2.1611242 0.24949971 0.42991695 0.2278687 -0.5971023 0.45161757
-0.112379774 -0.5081948 -0.047735058 -0.5240897 0.42693728 0.31550306 2.325414 0.67285776
-0.21106799 -0.019959526 -0.20634834 0.08227211 -0.61441666 -0.3197054 -0.7293089 -0.44064605
-0.29864007 -0.25047016 -1.2941009 -0.5145218 -0.6998486 0.41487134 -0.84532034 -0.20651352
0.38007945 0.17034832 -0.36119035 -0.5841002 -0.044559542 -0.019425862 0.19630326 -0.148534
0.22826473 -0.20224215 -0.47549802 -0.029642839 0.0964084 -0.16988872 -0.30389196 -0.16015005
0.6188863 -0.19175194 -0.48512125 -0.46965367 -0.4479381 0.34169307 -1.1795295 0.24426562
-0.34897918 -0.109304376 -1.2050302 0.60380274 0.005877053 0.110351756 0.55593026 0.20898333
-0.12844472 -0.02836182 -0.5320535 -0.10423393 -0.10477291 -0.72800606 1.0575027 -0.31425828
-0.37494043 0.18949968 1.4187416 0.5925353 -0.8189386 -0.26043764 -0.61098266 -0.084522694
0.046033062 -0.08702826 -0.15611672 0.15046145 0.65861267 -0.47941062 -0.53437114 -0.71321374
-0.5934117 -0.49661136 -1.1009928 -0.67772835 -0.8704881 0.310965 0.5764587 0.084955476

fc1.bias f4 [128]
00000000: 9ad4 b0bc ce74 81be 73db a8bd a1b5 eebd
00000010: 9b27 533e f6e9 86be a6ec 68be 6e97 a5bd
00000020: a01f cc3e 196f 97be 628f 02bf 49d0 003f
00000030: 957d 113f 638f 393e 79a2 fabe a1a6 edbe
00000040: a6c0 7e3a f271 163e 8244 773e 794a 3cbc
00000050: 69e7 fe3e 5ca8 01bf 18d3 bbbe b790 87be
00000060: aa66 073f c4e3 793e a987 4a3e e9ad 1abf
00000070: c536 203d 2fa2 db3d 2590 0a3f 9a6b 05bf
00000080: f12e 073c 8eee c6be 58f2 aebe bd4b 1f3c
00000090: 8e96 05bf 4fe8 973e 13ce 11bf 0739 6d3d
000000a0: 1b07 10bf 379e cabe 4f60 6abd c950 c6be
000000b0: db43 a83d edd6 f3be 5ddf 86be 62ec 0dbf
000000c0: aa52 48bf d77f 863e 7f86 813e 3874 3e3e
000000d0: e6d4 96be c052 0f38 30dd 233c a4c8 14bf
000000e0: 72f6 2d3e 240c c0be 4a71 62bd 8ead 29bf
000000f0: e58c 1bbf 80c8 dcbe cbfb f8be d377 08bc
00000100: fbf8 babe 5ae9 c5be 8301 14bf 3bc0 10bd
00000110: 1a18 a8b9 dda2 28bf 6d6c a83e 1a7b 4bbf
00000120: 220b 08bf 567b 18be 8c74 083e 48ca b33e
00000130: dfd9 753e 524b 96bc 77d9 a6be 705c e03d
00000140: b2ce f9be 33d6 36bf 27bd 9f3e a4ba 0d3e
00000150: 1187 b53e e525 89bf 461f 403d ea46 04bf
00000160: 1158 2bbf cd6c ac3e ba7c 30bf e488 063f
00000170: a022 11be 4362 b7be 0668 afbe 4ec8 7c3e
00000180: ef81 2cbc 7eed ae3c c9c7 933e 4b92 f1bd
00000190: c32a 50bd d37d e6be e100 153f ea06 d83e
000001a0: 15a2 083f b56c ab3e 5e66 bf3e 7dad 62bd
000001b0: ca55 9f3e dffb 0b3e 7e01 21be cf3f 13bf
000001c0: 1da3 eb3e 9db6 3bbd 3619 4dbe af23 923e
000001d0: 29f3 43bf 7dfa bebe 650d f0be 8e27 03be
000001e0: 4940 3a3e 160a 9ebe c1c1 eebe 51d6 03bf
000001f0: ecc1 bf3e 9507 d1be b17d 15bf e3da ad3d
-0.021585751 -0.25284427 -0.082449816 -0.11655737 0.20620577 -0.26350373 -0.22746524 -0.080855235
0.39867878 -0.29576948 -0.51000035 0.5031782 0.5683225 0.18121104 -0.48952082 -0.4641619
0.0009718038 0.14691904 0.24147227 -0.011492365 0.49785927 -0.5064752 -0.3668449 -0.26477596
0.5289103 0.24403292 0.19778313 -0.60421616 0.039114732 0.107242934 0.541262 -0.5211731
0.008250938 -0.38853878 -0.3416927 0.009722647 -0.52182853 0.29669425 -0.5695507 0.057915714
-0.5626084 -0.39573833 -0.057220753 -0.3873351 0.082160674 -0.47624913 -0.26342288 -0.55438817
-0.78251135 0.2626941 0.25297925 0.18599021 -0.29459304 3.4170924e-05 0.010001466 -0.58118653
0.16988543 -0.37509263 -0.055283822 -0.6628045 -0.60761863 -0.4312172 -0.48629603 -0.00832935
-0.36518082 -0.38654596 -0.57814807 -0.035339575 -0.00032061414 -0.6587351 0.32895222 -0.79484713
-0.5314199 -0.14890799 0.13325709 0.35115266 0.24008892 -0.018346462 -0.32587788 0.10955131
-0.48790509 -0.7142059 0.31199 0.13840729 0.3545461 -1.071469 0.046904825 -0.51670706
-0.66931254 0.33676758 -0.6894032 0.5255263 -0.14173365 -0.35817155 -0.3425905 0.24685785
-0.010529025 0.02135348 0.2886336 -0.11795481 -0.05082203 -0.4501787 0.58204466 0.42192775
0.5337232 0.33481374 0.37382787 -0.055341233 0.3112014 0.136703 -0.15723225 -0.5751924
0.46022883 -0.04582845 -0.20029148 0.2854285 -0.7654291 -0.37300482 -0.4688522 -0.12808058
0.18188585 -0.3086707 -0.46632197 -0.51498896 0.37452638 -0.40826097 -0.58394915 0.08489015

fc2.weight f4 [128, 128]
00000000: 2052 2d3d a183 573d a7fd c2bd b073 073d
00000010: 871f cdbd cf24 c3bd 49d7 90bd 2965 423d
00000020: de22 643d 671d f33c 28b4 2abc 7753 463d
00000030: 955e 483d 1078 4b3b bae5 a3bd 5faa a53d
00000040: 1cb5 c6bb f6c4 343d 5c3b d8bc b77e 77bd
00000050: 0935 c2bd e824 543d 4e6c a63c 6ad0 2e3d
00000060: 71bc 673d 7c56 1fbd 65e3 573d 6778 e83c
00000070: 28f7 743d e6a6 2a3d e689 2d3d 153f 533d
00000080: 3ec0 a0bd ace3 9f3c 7444 6dbc e84c 353d
00000090: aab0 a0bd 3710 1a3c 7e7a c7bd cdf8 6fbc
000000a0: 3e6b 65bd b2c8 aa3c 30b5 63bc ae62 abbd
000000b0: c200 393d d674 c9bd 5286 c33c d411 adbd
000000c0: 433e 833d 5b95 743d 1618 a03c 2cd6 723c
000000d0: cc99 8b3d 474a 783d c781 d2bd d0cf f33b
000000e0: 0db4 343d 3e93 6b3d 544e babc ca8e 063d
000000f0: cfe1 6a3d a244 72bd 1f58 5dbd 1882 62bd
00000100: d1a9 8f3d dc74 0dbd 0b5e 91bd 8ea5 4bbd
00000110: 9942 913c 7738 ee3b 931a d03c 1a81 adbd
00000120: da6c 063b 4c1a 0b3d d0f0 a6bc cf22 54bd
00000130: 468d 1dbd f80a 863c a29e f9bc 54f0 90bd
00000140: 1eea 443d f6c6 523c ac84 c3bd c434 a5bd
00000150: 740f d23b 1f2c 90bd 7fe2 9cbd 89c5 c63c
00000160: 5895 18bd 20b0 8f3d 4298 44bd 43c0 adbc
00000170: e8f3 47bc d758 41bd ed5d 28bd f86f 733c
00000180: a28a 23bb 601b a83b b807 9f3c 9421 3d3d
00000190: 9aa3 aabd 853f 6e3c 9c4f 1abd 4246 9ebd
000001a0: 272a 29bc b5c0 bd3b 41a2 173d 443f 4f3d
000001b0: 5082 813c 7845 d2bd 9016 cfbd 6b45 673d
000001c0: 822d 08bd b8fe 57bc 06c7 d0bd c2d6 8bbd
000001d0: 1718 88bd aa79 02bd ff85 d03c 28b4 843c
000001e0: f827 a0bd c55a 3cbd 682c 4c3d 98b8 2c3c
000001f0: 3cba 8bbd 6b73 883d 1209 fe3c 644d 4dbd
00000200: 278c bbbe 173a 01be 1841 c5be bce5 33bd
00000210: 23e2 093e 5a5a 96bc f91a 0abd f1ec 42bd
00000220: 21e8 fe3d 3617 68bf 451f 1e3c 7943 933d
00000230: 841f 013e a64a 073e b378 cac0 a7cf 50c0
00000240: e388 c3be c803 a9bd c017 f2bd 98a0 823e
00000250: c85f a33d eab3 6dbf 5955 1ac0 2a9f 3abf
00000260: 1111 ac3c 24a0 34be b4d3 573e 8d28 6cc0
00000270: 752d ba3c a7e2 39bf 4ee4 163d 05a1 90c0
00000280: 15a2 fe3e 6a1c 9abe bb1a ab3e f29e 313b
00000290: 158d 35bf 1676 953d f0c6 87c0 5e81 f7be
000002a0: d707 a9be 9cfd aabe bab3 e4be 17a0 58bf
000002b0: 186a 72be cc8d ff3e 34de 76bf 3b06 0bbf
000002c0: 574a 72be f1f8 e0bc 273e 2fbd 6731 a5be
000002d0: 3dcc 3e3f 04a4 643e b934 09be e839 4ebe
000002e0: 8f33 b0be d411 d63f e5c7 523f 5e6e e23d
000002f0: 6765 f4bc 4cbc ef3f bc8d 78be 2d4b 0f3f
00000300: 3b5b aabf 2571 823f 5234 98be 415a 763e
00000310: 960d 60bd 8508 9ac0 c71d 42be c242 afbf
00000320: 9bfc 92c0 ec99 f53e 51d1 e63d c0de f5bc
00000330: 323a 333b a270 45be cc1d 80bf b90c d53e
00000340: 8d00 11bf 03e1 d9be 4091 7d3e d02c 053f
00000350: 69bf 8c3e fc60 a8be 9b1f 83bd c20e b0bf
00000360: da42 86bd e0c0 6a3e a24f 6dbe 9d15 b63d
00000370: dba1 34bf 4506 79be e082 1d3f 242f d63e
00000380: 823d 093e dcfe 87bc 0192 7abe 0461 3cbe
00000390: 6ec6 a53d bc9b 0e3e 50ce d23d 3635 ec3c
000003a0: 65b1 a93b cd78 a6bd fecd 8c3d 8a1f dabd
000003b0: 09e9 f83d eb7b ac3e 99b4 edbe e88a f8bf
000003c0: fd96 8f3e f9f9 073e 65f2 3a3f 80d1 7d3e
000003d0: a26d 223e c345 e73e 7fe6 fa3f c367 5e3f
000003e0: 86e2 ce3e c32d acbe 1f58 873e 396a 8fbe
000003f0: 7592 84be d54b e3bf dcb1 45bf eb71 0e3e
0.04231465 0.052615765 -0.095210366 0.033069313 -0.10015779 -0.09528505 -0.070723124 0.047459755
0.055697314 0.029677106 -0.010418929 0.048419442 0.048918325 0.0031046905 -0.08002801 0.08089136
-0.0060640704 0.04413315 -0.026395492 -0.06042358 -0.09482772 0.05179301 0.020315316 0.042679228
0.056576196 -0.038900837 0.052707095 0.028377725 0.05980602 0.041663073 0.04236784 0.05157383
-0.07849167 0.019517742 -0.0144816525 0.044262797 -0.07846196 0.00940328 -0.097401604 -0.014646721
-0.056010477 0.020847652 -0.013898179 -0.08368431 0.04516674 -0.09836738 0.02386776 -0.08450666
0.0640836 0.05971275 0.019542735 0.01482157 0.06816444 0.06061771 -0.10278659 0.0074405447
0.044117022 0.057513468 -0.022742428 0.032851018 0.057344254 -0.059147485 -0.054039117 -0.05529985
0.07014812 -0.034535274 -0.070980154 -0.049718432 0.017731952 0.0072699147 0.025403297 -0.0847189
0.0020511658 0.033960626 -0.0203785 -0.05179101 -0.038464807 0.016362652 -0.03047115 -0.07077089
0.048074834 0.012864819 -0.095467895 -0.08066705 0.0064105336 -0.070396654 -0.07660388 0.024264114
-0.0372518 0.07016015 -0.047996767 -0.021209842 -0.012204148 -0.047203865 -0.0411052 0.014858238
-0.0024954458 0.0051302165 0.01941286 0.0461746 -0.08331986 0.014541511 -0.037673578 -0.07728244
-0.010324991 0.0057907947 0.03701997 0.050597444 0.015809208 -0.10267156 -0.10111725 0.056462687
-0.033246525 -0.013183288 -0.10194211 -0.06828071 -0.0664522 -0.03185431 0.02545452 0.016199186
-0.078201234 -0.045985002 0.049847037 0.010542057 -0.06822631 0.06662639 0.031010184 -0.050122634
-0.36630365 -0.12619816 -0.38526225 -0.043920264 0.1346517 -0.01835363 -0.03371713 -0.047589246
0.12446619 -0.9066042 0.00965101 0.07190604 0.12609679 0.1321207 -6.327234 -3.262674
-0.38190374 -0.08252674 -0.11820936 0.25513148 0.07977253 -0.9285265 -2.4114592 -0.72899115
0.021004232 -0.17639214 0.21076852 -3.689975 0.022726754 -0.7261147 0.036838822 -4.5196557
0.49733034 -0.30099803 0.3341883 0.0027102795 -0.709184 0.07297914 -4.2430344 -0.48340887
-0.33013794 -0.33396614 -0.4466837 -0.8461928 -0.23673284 0.4991287 -0.96432805 -0.5430638
-0.23661171 -0.027462455 -0.042783882 -0.32264253 0.7453039 0.22328192 -0.13399018 -0.20139277
-0.34414336 1.6724191 0.82336265 0.11056207 -0.029833509 1.8729339 -0.24272817 0.55974084
-1.3309091 1.0190779 -0.29727417 0.24057867 -0.054700457 -4.81354 -0.18956672 -1.3692248
-4.5933356 0.47968996 0.11270393 -0.030013442 0.002734792 -0.19281247 -1.0009093 0.4161127
-0.56641465 -0.42554483 0.2476244 0.52021503 0.27489784 -0.32886493 -0.06402513 -1.3754504
-0.0655572 0.22925138 -0.23174909 0.08890841 -0.7055947 -0.24318798 0.61527824 0.4183284
0.1340237 -0.016601019 -0.24469759 -0.18396384 0.08094488 0.13926595 0.10293257 0.028833967
0.005178618 -0.0812851 0.068752274 -0.10650547 0.12153823 0.33688292 -0.46426848 -1.9417391
0.28044882 0.13278951 0.73026115 0.24786949 0.15862134 0.4517041 1.9601592 0.8687708
0.404072 -0.33628663 0.2643442 -0.2801073 -0.25892988 -1.7757517 -0.77224517 0.13910644

fc2.bias f4 [128]
00000000: 07a9 bfbd 2589 9e3e 6ec4 4cbc 3c59 bd3c
00000010: 1d26 bfbd 7768 d93e 4fe0 e03e 5950 a53e
00000020: 4f2c 02bd 6ae3 9e3e 7cff ad3b a6fa d9bd
00000030: 140b cf3e fba4 00bd 5690 cebd d71a fcbc
00000040: 3fb8 cb3e d743 893c 62d3 aabc aedd 7b3e
00000050: 861c de3e b2c2 c13e 0e9c 7c3e 5187 c93e
00000060: 0b4f f3bd 4e0c 4d3d 3fb0 28bd 11dd 3c3e
00000070: bb76 c63e fcf9 653e 7bcb 3cbd 350e 0abd
00000080: 395a 91bd ac3a 92bd 81eb 9d3e af9f 91bd
00000090: bf51 debc be47 c8bc 3270 b0bd cc80 ebbd
000000a0: 8ef9 25be 33bc 023f 0e05 d03e 8ed2 ebbd
000000b0: f659 dc3e 1239 fabd 0512 bd3e 12ec b43e
000000c0: 80df e63e 3057 a0bd b395 c6bd 1824 b23c
000000d0: 0c27 f7bd fe52 a83e 6ee9 ea3e dc66 4f3c
000000e0: e898 d63e c2e2 6fbd add7 ef3e d70b 89bd
000000f0: d258 df3e 5b78 12bd 9dc9 1a3b 47ed a03e
00000100: 93c3 203c 482e 6bbe e03c bf3e e11e 8dbd
00000110: e16d dc3e d48b 033d bace b43e a283 c63b
00000120: cd17 b63e 01b6 e13e c226 bf3e d731 3a3e
00000130: e785 fbbd 8391 5cbc c1c9 923d 903d 563c
00000140: 7495 d13e fad1 d23e c6e5 13bd 10a4 013d
00000150: 06ba c53e 1059 9a3e dd7d 4abd 423e debd
00000160: fab5 90bd b9f7 683e 9bd3 a9bd dddb 1abc
00000170: 4c93 ca3e 229f 053d 4ab0 b23e d3f2 823e
00000180: 7804 d33e 9972 c53e 89ba f23e 4b30 c73e
00000190: 8285 5f3c 7422 10be 6538 e13e ce4e bcbc
000001a0: 3dd7 d6bc cf94 c43e bf98 bc3d da58 693e
000001b0: 8d7d 92bd c5e3 903e 10b7 ab3e 8528 0c3e
000001c0: fdd5 05be 1d04 81bc 9798 78bd 16f8 52bd
000001d0: 3c38 85bd 9ca3 cd3c aae2 ab3e bad4 b13e
000001e0: 6bc7 c5bd 9140 d7be 996b 98bc a94c 56bd
000001f0: be2c 903e 5d91 9fbd 79d4 d73e 4f61 113e
-0.09358411 0.30964008 -0.012498004 0.02311384 -0.093334414 0.42462513 0.43921134 0.32287863
-0.031780537 0.31032878 0.005309997 -0.106435105 0.4043814 -0.031407338 -0.10086124 -0.030774517
0.39789006 0.016755981 -0.020852748 0.24596283 0.43381137 0.37843853 0.24668905 0.3936105
-0.118803106 0.050060563 -0.041183706 0.18443705 0.3876246 0.22458643 -0.04609249 -0.033704955
-0.07097287 -0.07140097 0.30843738 -0.07110535 -0.027138589 -0.024448272 -0.086151496 -0.114991754
-0.16208479 0.5106842 0.40628856 -0.115147695 0.43037385 -0.122179165 0.3692781 0.35336357
0.45092392 -0.0782913 -0.096965216 0.021745726 -0.120679945 0.32875818 0.45881218 0.012658801
0.41913533 -0.058565862 0.46844235 -0.066917114 0.43622452 -0.03575931 0.0023618706 0.31431028
0.0098122535 -0.22966874 0.3735113 -0.06890655 0.4305258 0.032115772 0.3531397 0.0060581723
0.35565034 0.4408417 0.37334257 0.18183075 -0.12281399 -0.013462427 0.07167388 0.013076201
0.40934336 0.41175824 -0.0361078 0.031650603 0.38618487 0.30146074 -0.04943644 -0.108517185
-0.07065959 0.22750749 -0.08292314 -0.009451834 0.39565504 0.032622464 0.34900123 0.25575885
0.41214347 0.38563994 0.4740794 0.38904032 0.013642671 -0.14075643 0.43988338 -0.022986796
-0.02622568 0.38394782 0.092088215 0.227878 -0.07152853 0.28298774 0.33538103 0.13687332
-0.13069911 -0.015749032 -0.060692396 -0.051506124 -0.065048665 0.02510243 0.33571368 0.3473261
-0.096571766 -0.42041448 -0.018605994 -0.052319203 0.28159136 -0.07791398 0.4215429 0.14197277

fc3.weight f4 [2, 128]
00000000: 86f3 77bd be47 0840 e100 4d3a a677 723d
00000010: 7b3c 8fc0 a577 2b3f 5851 413f f49b 303e
00000020: b862 8d3c 5b66 333e 61bb 0f3d 2291 99bd
00000030: 4ea1 fe3e d43d c73d 40a1 c83c 58dd 86bd
00000040: 8114 f03e 0ac0 e83c 94bd 7bbd 01c3 04bf
00000050: 683d 983e 362b 693f 1361 943f e9f5 643f
00000060: 7919 883d 40b9 82bd 76ff b63d 4705 e4bf
00000070: 2208 973f 36c9 7dbf 3c7f 863c 55e0 963c
00000080: 9fd7 4dc0 c085 d1bc b65d c93f f13e 0f3d
00000090: 8622 16bd 9ad3 9cbf d9f8 09bd 0bf9 0ebd
000000a0: cf06 d8bc a4d8 383f d9fa c53f dae0 433d
000000b0: 0b23 053f c400 97bd 2a80 a83e db02 453f
000000c0: 8312 883f 965f 003d 2fcc 9cbd 4fc9 453c
000000d0: 9890 10bd 82c6 d23f 8459 653f 63c1 afbd
000000e0: 8066 763f b75c 823d 708a fa3e 33a7 243b
000000f0: 7b2d 463f 504b 803d 1f41 93bd 16b9 0040
00000100: 5997 bbbc 9ce1 6d3e 05f0 2f3f 9bad e93c
00000110: ff01 b83f e29a fabc 6883 9a3f 8f4c bd3c
00000120: 993d 8e3f 37cf 163f 29bc 233f 1fe2 31bf
00000130: f221 813b 09be f43c 30bb 703d 35ba 10bd
00000140: 7a8a 633f 9f3f b83f c2e3 81bd 0934 0d3c
00000150: 7339 a83f c20f c63d 03f2 593c 400b a8bb
00000160: 4e75 113d 0e25 b03f 2e8d ec3c a36f fabb
00000170: 109f 13be 7cd9 c1bf fb2b 803e d38a d0be
00000180: 06d3 923e ed2e d63e 208a 153f 9b2a 6d3f
00000190: 28ae 213e c15b 6fbc 33c3 693f 0e9e d43c
000001a0: facc 84bd c48e 073f 2b22 c9bf 327a cc3f
000001b0: fdb2 7c3d d73a ce3f f363 28bf d607 b5be
000001c0: d2a4 7a40 0430 62bb 573b 94bd e286 5abd
000001d0: c16c a83b 0294 5b3d c6d0 d93f c4ef b93e
000001e0: 6ac3 303d c567 6e40 becf 5dbd f91a e2bc
000001f0: acab 583f c624 95bc 0f7b 4f3f bdf2 9bbf
00000200: 6b36 84bd 5a32 293f 4a27 02bc 0d02 60bd
00000210: 2529 a9bf ded1 a43f 1356 823f c816 483f
00000220: 3815 71bc c95f d03f 159c 2b3d 7f1a ddbc
00000230: a41d 223f 98b3 3fbc d947 47bd 9281 02bd
00000240: fa78 973f b654 3dbd 088a f23c 6fbc ee3f
00000250: eda6 1d3f 8786 3b3f 7044 18c0 c33a 303f
00000260: 0e61 39bd b46a f33a 833a 96bd f14d 8e3f
00000270: 5e8f f53e 136c f43f 48bd 3ebd f3cf 39bd
00000280: a1b5 a8c0 0fbd bfbb a872 cabf 7aff 40ba
00000290: ee9e 69bd 1024 0dbf 2b20 04bc cf4a c0bd
000002a0: 06da f7bc b3fe 923e 3a1c cf3e c94a 63bc
000002b0: ffd5 c23f 523f 22bd a1a7 173f ae95 323f
000002c0: d3cf 183e 23ff 183a 6866 dabb a8a7 d0bb
000002d0: 5109 bb3b b8a7 bfbe 129c 403e 71fe 2b3d
000002e0: 3c39 c43e a5da af3c ec13 813f ed04 3e3c
000002f0: c413 c23e 73d8 4ebd 1050 2a3d 7c3b 35be
00000300: b288 4a3b b352 3e3f 792b 0c3f ea4a d0bc
00000310: 2cc4 a63e 224c 473d fad2 f13e a236 c2bb
00000320: 1c63 0d3f 3017 c43f e44b 7d3f 669d ef3f
00000330: dfba e33b 9a21 123c d09c 52bd 76b9 393c
00000340: 8e60 13bf 1e4e 863e 68c8 62bd 9c4c 17bd
00000350: 0e6f db3e 91f7 903f bf3e fabc a51a 36bc
00000360: 35a7 843d b32e dbbf f9ef 353d db8c 31bd
00000370: b2c2 c93f 19cc 503f 126e 683f ed4b d63f
00000380: c786 083f d914 083f 4f56 c43e 8197 383f
00000390: 38ad 84bf 5193 073e 1e7c 913e 4fd2 6e3b
000003a0: 9fdc 3fbc 6b3c 133f d96f c23f de85 a7bf
000003b0: 0c33 0abd e114 11bf 8069 e73f 5d57 823f
000003c0: 82e8 febf 6806 95bd b6db 9cbc 302d 423c
000003d0: 9607 943c 1aa3 82bd 74f3 5fbe 6477 bb3f
000003e0: b8af 86bd 6e23 293f 3b15 03bc 8482 a33c
000003f0: d01a 543f 1f48 6a3d 3353 543f 925e 3d3f
-0.060534976 2.1293788 0.00078202604 0.059196137 -4.476133 0.6697944 0.75514746 0.17246991
0.017258987 0.17519514 0.035090808 -0.07498385 0.4973244 0.0972859 0.024490952 -0.06585187
0.46890643 0.028411884 -0.061460093 -0.5186005 0.2973435 0.9108156 1.1592125 0.8943773
0.066454835 -0.0638299 0.08935444 -1.781411 1.1799357 -0.9913515 0.016418092 0.018417517
-3.2162855 -0.025576472 1.5731723 0.034972135 -0.036654018 -1.2252076 -0.033684585 -0.034905475
-0.026370434 0.7220557 1.5467178 0.047821857 0.52006596 -0.07373193 0.3291028 0.7695748
1.0630649 0.031341158 -0.076561324 0.0120719215 -0.035294145 1.646683 0.89589715 -0.085818075
0.9625015 0.0636534 0.48933744 0.0025124073 0.7741315 0.06264365 -0.07190155 2.0112967
-0.022899317 0.23230594 0.68725616 0.028525164 1.4375609 -0.030591432 1.2071352 0.023107795
1.1112548 0.58909935 0.63958985 -0.6948566 0.003940814 0.029875772 0.058772266 -0.03533383
0.88883173 1.4394416 -0.063422695 0.008618363 1.3142532 0.09670974 0.013302329 -0.005128294
0.03551226 1.3761308 0.028875913 -0.0076427027 -0.14416146 -1.5144496 0.25033554 -0.40730914
0.28676623 0.41832677 0.5841389 0.92643136 0.15789092 -0.014609278 0.91313475 0.025954273
-0.06484409 0.5295222 -1.5713552 1.5974791 0.061694134 1.6111706 -0.6577751 -0.3535754
3.9163098 -0.0034513483 -0.07237881 -0.05335129 0.0051399176 0.053607948 1.7016838 0.3631574
0.04315511 3.7250836 -0.054153197 -0.027600752 0.8463695 -0.018206012 0.8104715 -1.2183453
-0.06455692 0.66092455 -0.007943938 -0.054689456 -1.3215681 1.2876546 1.0182518 0.7815976
-0.014714532 1.6279231 0.0418969 -0.026990173 0.6332648 -0.011700533 -0.048652504 -0.03186185
1.1833794 -0.046223365 0.029606834 1.8651255 0.61582834 0.7325215 -2.379177 0.68839663
-0.045258574 0.0018571229 -0.07335379 1.1117536 0.47960943 1.9095482 -0.04656723 -0.04536433
-5.2721715 -0.005851395 -1.581624 -0.0007362288 -0.057036333 -0.5513315 -0.00806431 -0.093892686
-0.030255329 0.28709945 0.40451223 -0.013872811 1.5221556 -0.03961117 0.59240156 0.69759643
0.14923029 0.0005836358 -0.00666504 -0.0063676424 0.0057078977 -0.37432647 0.18809536 0.0419907
0.38324916 0.021466563 1.0084205 0.011597854 0.37905705 -0.05049939 0.04158026 -0.17698473
0.003090423 0.7434494 0.54753834 -0.025426347 0.32571542 0.04865659 0.47231275 -0.005926923
0.55229354 1.5319576 0.98943925 1.8719909 0.006949767 0.008919144 -0.05141908 0.011335721
-0.57569206 0.26231474 -0.055366904 -0.036938295 0.42858166 1.1325551 -0.030547498 -0.011114751
0.06477205 -1.7123626 0.04441831 -0.04334722 1.5762541 0.8156143 0.90792954 1.6741921
0.53330654 0.5315681 0.38347098 0.72106177 -1.0365362 0.1323979 0.28415006 0.0036441272
-0.011710315 0.57514066 1.5190383 -1.3087728 -0.03374009 -0.56672484 1.8079071 1.0182911
-1.9914706 -0.072766125 -0.019147735 0.011851594 0.018070024 -0.063787654 -0.21870214 1.464581
-0.065764844 0.66069686 -0.008000667 0.019959696 0.8285341 0.057197686 0.8293945 0.7397243

fc3.bias f4 [2]
00000000: 609e d53e de3a 5e3e
0.41722393 0.21702144
